{"format": "graph-model", "generatedBy": "2.10.0-dev20220616", "convertedBy": "TensorFlow.js Converter v4.3.0", "signature": {"inputs": {"inputs": {"name": "inputs:0", "dtype": "DT_FLOAT", "tensorShape": {"dim": [{"size": "1"}, {"size": "512"}, {"size": "1024"}, {"size": "3"}]}}}, "outputs": {"image_info": {"name": "Identity_4:0", "dtype": "DT_FLOAT", "tensorShape": {"dim": [{"size": "1"}, {"size": "4"}, {"size": "2"}]}}, "detection_scores": {"name": "Identity_3:0", "dtype": "DT_FLOAT", "tensorShape": {"dim": [{"size": "1"}, {"size": "100"}]}}, "detection_masks": {"name": "Identity_2:0", "dtype": "DT_FLOAT", "tensorShape": {"dim": [{"size": "1"}, {"size": "100"}, {"size": "28"}, {"size": "28"}]}}, "detection_classes": {"name": "Identity_1:0", "dtype": "DT_INT32", "tensorShape": {"dim": [{"size": "1"}, {"size": "100"}]}}, "detection_boxes": {"name": "Identity:0", "dtype": "DT_FLOAT", "tensorShape": {"dim": [{"size": "1"}, {"size": "100"}, {"size": "4"}]}}, "num_detections": {"name": "Identity_5:0", "dtype": "DT_INT32", "tensorShape": {"dim": [{"size": "1"}]}}}}, "modelTopology": {"node": [{"name": "StatefulPartitionedCall/mask_head/mask-upsampling/stack", "op": "Const", "attr": {"dtype": {"type": "DT_INT32"}, "value": {"tensor": {"dtype": "DT_INT32", "tensorShape": {"dim": [{"size": "4"}]}}}}}, {"name": "StatefulPartitionedCall/mask_head/mask-upsampling/conv2d_transpose/ReadVariableOp", "op": "Const", "attr": {"value": {"tensor": {"dtype": "DT_FLOAT", "tensorShape": {"dim": [{"size": "2"}, {"size": "2"}, {"size": "256"}, {"size": "256"}]}}}, "dtype": {"type": "DT_FLOAT"}}}, {"name": "StatefulPartitionedCall/multilevel_roi_aligner_1/multilevel_crop_and_resize/Reshape/shape", "op": "Const", "attr": {"value": {"tensor": {"dtype": "DT_INT32", "tensorShape": {"dim": [{"size": "3"}]}}}, "dtype": {"type": "DT_INT32"}}}, {"name": "StatefulPartitionedCall/multilevel_roi_aligner_1/multilevel_crop_and_resize/Reshape_1/shape", "op": "Const", "attr": {"dtype": {"type": "DT_INT32"}, "value": {"tensor": {"dtype": "DT_INT32", "tensorShape": {"dim": [{"size": "3"}]}}}}}, {"name": "StatefulPartitionedCall/multilevel_roi_aligner_1/multilevel_crop_and_resize/Reshape_2/shape", "op": "Const", "attr": {"value": {"tensor": {"dtype": "DT_INT32", "tensorShape": {"dim": [{"size": "3"}]}}}, "dtype": {"type": "DT_INT32"}}}, {"name": "StatefulPartitionedCall/multilevel_roi_aligner_1/multilevel_crop_and_resize/Reshape_3/shape", "op": "Const", "attr": {"dtype": {"type": "DT_INT32"}, "value": {"tensor": {"dtype": "DT_INT32", "tensorShape": {"dim": [{"size": "3"}]}}}}}, {"name": "StatefulPartitionedCall/multilevel_roi_aligner_1/multilevel_crop_and_resize/Reshape_4/shape", "op": "Const", "attr": {"value": {"tensor": {"dtype": "DT_INT32", "tensorShape": {"dim": [{"size": "3"}]}}}, "dtype": {"type": "DT_INT32"}}}, {"name": "StatefulPartitionedCall/multilevel_roi_aligner_1/multilevel_crop_and_resize/concat/axis", "op": "Const", "attr": {"value": {"tensor": {"dtype": "DT_INT32", "tensorShape": {}}}, "dtype": {"type": "DT_INT32"}}}, {"name": "StatefulPartitionedCall/multilevel_roi_aligner_1/multilevel_crop_and_resize/Reshape_5/shape", "op": "Const", "attr": {"dtype": {"type": "DT_INT32"}, "value": {"tensor": {"dtype": "DT_INT32", "tensorShape": {"dim": [{"size": "2"}]}}}}}, {"name": "StatefulPartitionedCall/multilevel_roi_aligner_1/multilevel_crop_and_resize/Tile", "op": "Const", "attr": {"dtype": {"type": "DT_INT32"}, "value": {"tensor": {"dtype": "DT_INT32", "tensorShape": {"dim": [{"size": "1"}, {"size": "100"}, {"size": "28"}, {"size": "28"}]}}}}}, {"name": "StatefulPartitionedCall/multilevel_roi_aligner_1/multilevel_crop_and_resize/Const", "op": "Const", "attr": {"dtype": {"type": "DT_INT32"}, "value": {"tensor": {"dtype": "DT_INT32", "tensorShape": {"dim": [{"size": "5"}]}}}}}, {"name": "StatefulPartitionedCall/multilevel_roi_aligner_1/multilevel_crop_and_resize/GatherV2/axis", "op": "Const", "attr": {"value": {"tensor": {"dtype": "DT_INT32", "tensorShape": {}}}, "dtype": {"type": "DT_INT32"}}}, {"name": "StatefulPartitionedCall/multilevel_roi_aligner_1/multilevel_crop_and_resize/Reshape_11/shape", "op": "Const", "attr": {"value": {"tensor": {"dtype": "DT_INT32", "tensorShape": {"dim": [{"size": "4"}]}}}, "dtype": {"type": "DT_INT32"}}}, {"name": "StatefulPartitionedCall/multilevel_roi_aligner_1/multilevel_crop_and_resize/Tile_1/multiples", "op": "Const", "attr": {"dtype": {"type": "DT_INT32"}, "value": {"tensor": {"dtype": "DT_INT32", "tensorShape": {"dim": [{"size": "4"}]}}}}}, {"name": "StatefulPartitionedCall/multilevel_roi_aligner_1/multilevel_crop_and_resize/add_30/y", "op": "Const", "attr": {"value": {"tensor": {"dtype": "DT_FLOAT", "tensorShape": {}}}, "dtype": {"type": "DT_FLOAT"}}}, {"name": "StatefulPartitionedCall/multilevel_roi_aligner_1/multilevel_crop_and_resize/strided_slice_71/stack", "op": "Const", "attr": {"value": {"tensor": {"dtype": "DT_INT32", "tensorShape": {"dim": [{"size": "3"}]}}}, "dtype": {"type": "DT_INT32"}}}, {"name": "StatefulPartitionedCall/multilevel_roi_aligner_1/multilevel_crop_and_resize/strided_slice_71/stack_1", "op": "Const", "attr": {"value": {"tensor": {"dtype": "DT_INT32", "tensorShape": {"dim": [{"size": "3"}]}}}, "dtype": {"type": "DT_INT32"}}}, {"name": "StatefulPartitionedCall/multilevel_roi_aligner_1/multilevel_crop_and_resize/strided_slice_71/stack_2", "op": "Const", "attr": {"dtype": {"type": "DT_INT32"}, "value": {"tensor": {"dtype": "DT_INT32", "tensorShape": {"dim": [{"size": "3"}]}}}}}, {"name": "StatefulPartitionedCall/multilevel_roi_aligner_1/multilevel_crop_and_resize/ExpandDims_8/dim", "op": "Const", "attr": {"dtype": {"type": "DT_INT32"}, "value": {"tensor": {"dtype": "DT_INT32", "tensorShape": {}}}}}, {"name": "StatefulPartitionedCall/multilevel_roi_aligner_1/multilevel_crop_and_resize/Reshape_9/shape", "op": "Const", "attr": {"dtype": {"type": "DT_INT32"}, "value": {"tensor": {"dtype": "DT_INT32", "tensorShape": {"dim": [{"size": "3"}]}}}}}, {"name": "StatefulPartitionedCall/multilevel_roi_aligner_1/multilevel_crop_and_resize/Const_1", "op": "Const", "attr": {"dtype": {"type": "DT_INT32"}, "value": {"tensor": {"dtype": "DT_INT32", "tensorShape": {"dim": [{"size": "5"}]}}}}}, {"name": "StatefulPartitionedCall/multilevel_roi_aligner_1/multilevel_crop_and_resize/GatherV2_1/axis", "op": "Const", "attr": {"value": {"tensor": {"dtype": "DT_INT32", "tensorShape": {}}}, "dtype": {"type": "DT_INT32"}}}, {"name": "StatefulPartitionedCall/multilevel_roi_aligner_1/multilevel_crop_and_resize/ExpandDims_9/dim", "op": "Const", "attr": {"value": {"tensor": {"dtype": "DT_INT32", "tensorShape": {}}}, "dtype": {"type": "DT_INT32"}}}, {"name": "StatefulPartitionedCall/multilevel_roi_aligner_1/multilevel_crop_and_resize/Reshape_12/shape", "op": "Const", "attr": {"value": {"tensor": {"dtype": "DT_INT32", "tensorShape": {"dim": [{"size": "4"}]}}}, "dtype": {"type": "DT_INT32"}}}, {"name": "StatefulPartitionedCall/multilevel_roi_aligner_1/multilevel_crop_and_resize/Tile_2/multiples", "op": "Const", "attr": {"value": {"tensor": {"dtype": "DT_INT32", "tensorShape": {"dim": [{"size": "4"}]}}}, "dtype": {"type": "DT_INT32"}}}, {"name": "StatefulPartitionedCall/multilevel_roi_aligner_1/multilevel_crop_and_resize/add_29/y", "op": "Const", "attr": {"value": {"tensor": {"dtype": "DT_FLOAT", "tensorShape": {}}}, "dtype": {"type": "DT_FLOAT"}}}, {"name": "StatefulPartitionedCall/multilevel_roi_aligner_1/multilevel_crop_and_resize/strided_slice_69/stack", "op": "Const", "attr": {"value": {"tensor": {"dtype": "DT_INT32", "tensorShape": {"dim": [{"size": "3"}]}}}, "dtype": {"type": "DT_INT32"}}}, {"name": "StatefulPartitionedCall/multilevel_roi_aligner_1/multilevel_crop_and_resize/strided_slice_69/stack_1", "op": "Const", "attr": {"dtype": {"type": "DT_INT32"}, "value": {"tensor": {"dtype": "DT_INT32", "tensorShape": {"dim": [{"size": "3"}]}}}}}, {"name": "StatefulPartitionedCall/multilevel_roi_aligner_1/multilevel_crop_and_resize/strided_slice_69/stack_2", "op": "Const", "attr": {"value": {"tensor": {"dtype": "DT_INT32", "tensorShape": {"dim": [{"size": "3"}]}}}, "dtype": {"type": "DT_INT32"}}}, {"name": "StatefulPartitionedCall/multilevel_roi_aligner_1/multilevel_crop_and_resize/ExpandDims_6/dim", "op": "Const", "attr": {"value": {"tensor": {"dtype": "DT_INT32", "tensorShape": {}}}, "dtype": {"type": "DT_INT32"}}}, {"name": "StatefulPartitionedCall/multilevel_roi_aligner_1/multilevel_crop_and_resize/Reshape_8/shape", "op": "Const", "attr": {"value": {"tensor": {"dtype": "DT_INT32", "tensorShape": {"dim": [{"size": "3"}]}}}, "dtype": {"type": "DT_INT32"}}}, {"name": "StatefulPartitionedCall/multilevel_roi_aligner_1/multilevel_crop_and_resize/Reshape_13/shape", "op": "Const", "attr": {"dtype": {"type": "DT_INT32"}, "value": {"tensor": {"dtype": "DT_INT32", "tensorShape": {"dim": [{"size": "4"}]}}}}}, {"name": "StatefulPartitionedCall/multilevel_roi_aligner_1/multilevel_crop_and_resize/Tile_3/multiples", "op": "Const", "attr": {"value": {"tensor": {"dtype": "DT_INT32", "tensorShape": {"dim": [{"size": "4"}]}}}, "dtype": {"type": "DT_INT32"}}}, {"name": "StatefulPartitionedCall/multilevel_roi_aligner_1/multilevel_crop_and_resize/Reshape_14/shape", "op": "Const", "attr": {"value": {"tensor": {"dtype": "DT_INT32", "tensorShape": {"dim": [{"size": "1"}]}}}, "dtype": {"type": "DT_INT32"}}}, {"name": "StatefulPartitionedCall/multilevel_roi_aligner_1/multilevel_crop_and_resize/GatherV2_2/axis", "op": "Const", "attr": {"dtype": {"type": "DT_INT32"}, "value": {"tensor": {"dtype": "DT_INT32", "tensorShape": {}}}}}, {"name": "StatefulPartitionedCall/multilevel_roi_aligner_1/multilevel_crop_and_resize/Reshape_15/shape", "op": "Const", "attr": {"value": {"tensor": {"dtype": "DT_INT32", "tensorShape": {"dim": [{"size": "5"}]}}}, "dtype": {"type": "DT_INT32"}}}, {"name": "StatefulPartitionedCall/multilevel_roi_aligner_1/multilevel_crop_and_resize/mul_34/y", "op": "Const", "attr": {"dtype": {"type": "DT_FLOAT"}, "value": {"tensor": {"dtype": "DT_FLOAT", "tensorShape": {}}}}}, {"name": "StatefulPartitionedCall/multilevel_roi_aligner_1/multilevel_crop_and_resize/sub_7/x", "op": "Const", "attr": {"value": {"tensor": {"dtype": "DT_FLOAT", "tensorShape": {}}}, "dtype": {"type": "DT_FLOAT"}}}, {"name": "StatefulPartitionedCall/multilevel_roi_aligner_1/multilevel_crop_and_resize/Cast_6/x", "op": "Const", "attr": {"value": {"tensor": {"dtype": "DT_FLOAT", "tensorShape": {}}}, "dtype": {"type": "DT_FLOAT"}}}, {"name": "StatefulPartitionedCall/multilevel_roi_aligner_1/multilevel_crop_and_resize/strided_slice_14/stack", "op": "Const", "attr": {"dtype": {"type": "DT_INT32"}, "value": {"tensor": {"dtype": "DT_INT32", "tensorShape": {"dim": [{"size": "3"}]}}}}}, {"name": "StatefulPartitionedCall/multilevel_roi_aligner_1/multilevel_crop_and_resize/strided_slice_14/stack_1", "op": "Const", "attr": {"dtype": {"type": "DT_INT32"}, "value": {"tensor": {"dtype": "DT_INT32", "tensorShape": {"dim": [{"size": "3"}]}}}}}, {"name": "StatefulPartitionedCall/multilevel_roi_aligner_1/multilevel_crop_and_resize/strided_slice_14/stack_2", "op": "Const", "attr": {"value": {"tensor": {"dtype": "DT_INT32", "tensorShape": {"dim": [{"size": "3"}]}}}, "dtype": {"type": "DT_INT32"}}}, {"name": "StatefulPartitionedCall/multilevel_roi_aligner_1/multilevel_crop_and_resize/strided_slice_15/stack", "op": "Const", "attr": {"value": {"tensor": {"dtype": "DT_INT32", "tensorShape": {"dim": [{"size": "3"}]}}}, "dtype": {"type": "DT_INT32"}}}, {"name": "StatefulPartitionedCall/multilevel_roi_aligner_1/multilevel_crop_and_resize/strided_slice_15/stack_1", "op": "Const", "attr": {"value": {"tensor": {"dtype": "DT_INT32", "tensorShape": {"dim": [{"size": "3"}]}}}, "dtype": {"type": "DT_INT32"}}}, {"name": "StatefulPartitionedCall/multilevel_roi_aligner_1/multilevel_crop_and_resize/strided_slice_15/stack_2", "op": "Const", "attr": {"value": {"tensor": {"dtype": "DT_INT32", "tensorShape": {"dim": [{"size": "3"}]}}}, "dtype": {"type": "DT_INT32"}}}, {"name": "StatefulPartitionedCall/multilevel_roi_aligner_1/multilevel_crop_and_resize/mul_2", "op": "Const", "attr": {"value": {"tensor": {"dtype": "DT_FLOAT", "tensorShape": {}}}, "dtype": {"type": "DT_FLOAT"}}}, {"name": "StatefulPartitionedCall/multilevel_roi_aligner_1/multilevel_crop_and_resize/strided_slice_18/stack", "op": "Const", "attr": {"value": {"tensor": {"dtype": "DT_INT32", "tensorShape": {"dim": [{"size": "3"}]}}}, "dtype": {"type": "DT_INT32"}}}, {"name": "StatefulPartitionedCall/multilevel_roi_aligner_1/multilevel_crop_and_resize/strided_slice_18/stack_1", "op": "Const", "attr": {"value": {"tensor": {"dtype": "DT_INT32", "tensorShape": {"dim": [{"size": "3"}]}}}, "dtype": {"type": "DT_INT32"}}}, {"name": "StatefulPartitionedCall/multilevel_roi_aligner_1/multilevel_crop_and_resize/strided_slice_18/stack_2", "op": "Const", "attr": {"value": {"tensor": {"dtype": "DT_INT32", "tensorShape": {"dim": [{"size": "3"}]}}}, "dtype": {"type": "DT_INT32"}}}, {"name": "StatefulPartitionedCall/multilevel_roi_aligner_1/multilevel_crop_and_resize/strided_slice_19/stack", "op": "Const", "attr": {"dtype": {"type": "DT_INT32"}, "value": {"tensor": {"dtype": "DT_INT32", "tensorShape": {"dim": [{"size": "3"}]}}}}}, {"name": "StatefulPartitionedCall/multilevel_roi_aligner_1/multilevel_crop_and_resize/strided_slice_19/stack_1", "op": "Const", "attr": {"dtype": {"type": "DT_INT32"}, "value": {"tensor": {"dtype": "DT_INT32", "tensorShape": {"dim": [{"size": "3"}]}}}}}, {"name": "StatefulPartitionedCall/multilevel_roi_aligner_1/multilevel_crop_and_resize/strided_slice_19/stack_2", "op": "Const", "attr": {"dtype": {"type": "DT_INT32"}, "value": {"tensor": {"dtype": "DT_INT32", "tensorShape": {"dim": [{"size": "3"}]}}}}}, {"name": "StatefulPartitionedCall/multilevel_roi_aligner_1/multilevel_crop_and_resize/mul_4", "op": "Const", "attr": {"dtype": {"type": "DT_FLOAT"}, "value": {"tensor": {"dtype": "DT_FLOAT", "tensorShape": {}}}}}, {"name": "StatefulPartitionedCall/multilevel_roi_aligner_1/multilevel_crop_and_resize/strided_slice_22/stack", "op": "Const", "attr": {"value": {"tensor": {"dtype": "DT_INT32", "tensorShape": {"dim": [{"size": "3"}]}}}, "dtype": {"type": "DT_INT32"}}}, {"name": "StatefulPartitionedCall/multilevel_roi_aligner_1/multilevel_crop_and_resize/strided_slice_22/stack_1", "op": "Const", "attr": {"value": {"tensor": {"dtype": "DT_INT32", "tensorShape": {"dim": [{"size": "3"}]}}}, "dtype": {"type": "DT_INT32"}}}, {"name": "StatefulPartitionedCall/multilevel_roi_aligner_1/multilevel_crop_and_resize/strided_slice_22/stack_2", "op": "Const", "attr": {"value": {"tensor": {"dtype": "DT_INT32", "tensorShape": {"dim": [{"size": "3"}]}}}, "dtype": {"type": "DT_INT32"}}}, {"name": "StatefulPartitionedCall/multilevel_roi_aligner_1/multilevel_crop_and_resize/strided_slice_23/stack", "op": "Const", "attr": {"value": {"tensor": {"dtype": "DT_INT32", "tensorShape": {"dim": [{"size": "3"}]}}}, "dtype": {"type": "DT_INT32"}}}, {"name": "StatefulPartitionedCall/multilevel_roi_aligner_1/multilevel_crop_and_resize/strided_slice_23/stack_1", "op": "Const", "attr": {"dtype": {"type": "DT_INT32"}, "value": {"tensor": {"dtype": "DT_INT32", "tensorShape": {"dim": [{"size": "3"}]}}}}}, {"name": "StatefulPartitionedCall/multilevel_roi_aligner_1/multilevel_crop_and_resize/strided_slice_23/stack_2", "op": "Const", "attr": {"value": {"tensor": {"dtype": "DT_INT32", "tensorShape": {"dim": [{"size": "3"}]}}}, "dtype": {"type": "DT_INT32"}}}, {"name": "StatefulPartitionedCall/multilevel_roi_aligner_1/multilevel_crop_and_resize/mul_6", "op": "Const", "attr": {"value": {"tensor": {"dtype": "DT_FLOAT", "tensorShape": {}}}, "dtype": {"type": "DT_FLOAT"}}}, {"name": "StatefulPartitionedCall/multilevel_roi_aligner_1/multilevel_crop_and_resize/strided_slice_26/stack", "op": "Const", "attr": {"dtype": {"type": "DT_INT32"}, "value": {"tensor": {"dtype": "DT_INT32", "tensorShape": {"dim": [{"size": "3"}]}}}}}, {"name": "StatefulPartitionedCall/multilevel_roi_aligner_1/multilevel_crop_and_resize/strided_slice_26/stack_1", "op": "Const", "attr": {"value": {"tensor": {"dtype": "DT_INT32", "tensorShape": {"dim": [{"size": "3"}]}}}, "dtype": {"type": "DT_INT32"}}}, {"name": "StatefulPartitionedCall/multilevel_roi_aligner_1/multilevel_crop_and_resize/strided_slice_26/stack_2", "op": "Const", "attr": {"dtype": {"type": "DT_INT32"}, "value": {"tensor": {"dtype": "DT_INT32", "tensorShape": {"dim": [{"size": "3"}]}}}}}, {"name": "StatefulPartitionedCall/multilevel_roi_aligner_1/multilevel_crop_and_resize/strided_slice_27/stack", "op": "Const", "attr": {"dtype": {"type": "DT_INT32"}, "value": {"tensor": {"dtype": "DT_INT32", "tensorShape": {"dim": [{"size": "3"}]}}}}}, {"name": "StatefulPartitionedCall/multilevel_roi_aligner_1/multilevel_crop_and_resize/strided_slice_27/stack_1", "op": "Const", "attr": {"dtype": {"type": "DT_INT32"}, "value": {"tensor": {"dtype": "DT_INT32", "tensorShape": {"dim": [{"size": "3"}]}}}}}, {"name": "StatefulPartitionedCall/multilevel_roi_aligner_1/multilevel_crop_and_resize/strided_slice_27/stack_2", "op": "Const", "attr": {"dtype": {"type": "DT_INT32"}, "value": {"tensor": {"dtype": "DT_INT32", "tensorShape": {"dim": [{"size": "3"}]}}}}}, {"name": "StatefulPartitionedCall/multilevel_roi_aligner_1/multilevel_crop_and_resize/mul_8", "op": "Const", "attr": {"dtype": {"type": "DT_FLOAT"}, "value": {"tensor": {"dtype": "DT_FLOAT", "tensorShape": {}}}}}, {"name": "StatefulPartitionedCall/multilevel_roi_aligner_1/multilevel_crop_and_resize/strided_slice_30/stack", "op": "Const", "attr": {"value": {"tensor": {"dtype": "DT_INT32", "tensorShape": {"dim": [{"size": "3"}]}}}, "dtype": {"type": "DT_INT32"}}}, {"name": "StatefulPartitionedCall/multilevel_roi_aligner_1/multilevel_crop_and_resize/strided_slice_30/stack_1", "op": "Const", "attr": {"dtype": {"type": "DT_INT32"}, "value": {"tensor": {"dtype": "DT_INT32", "tensorShape": {"dim": [{"size": "3"}]}}}}}, {"name": "StatefulPartitionedCall/multilevel_roi_aligner_1/multilevel_crop_and_resize/strided_slice_30/stack_2", "op": "Const", "attr": {"dtype": {"type": "DT_INT32"}, "value": {"tensor": {"dtype": "DT_INT32", "tensorShape": {"dim": [{"size": "3"}]}}}}}, {"name": "StatefulPartitionedCall/multilevel_roi_aligner_1/multilevel_crop_and_resize/strided_slice_31/stack", "op": "Const", "attr": {"dtype": {"type": "DT_INT32"}, "value": {"tensor": {"dtype": "DT_INT32", "tensorShape": {"dim": [{"size": "3"}]}}}}}, {"name": "StatefulPartitionedCall/multilevel_roi_aligner_1/multilevel_crop_and_resize/strided_slice_31/stack_1", "op": "Const", "attr": {"value": {"tensor": {"dtype": "DT_INT32", "tensorShape": {"dim": [{"size": "3"}]}}}, "dtype": {"type": "DT_INT32"}}}, {"name": "StatefulPartitionedCall/multilevel_roi_aligner_1/multilevel_crop_and_resize/strided_slice_31/stack_2", "op": "Const", "attr": {"dtype": {"type": "DT_INT32"}, "value": {"tensor": {"dtype": "DT_INT32", "tensorShape": {"dim": [{"size": "3"}]}}}}}, {"name": "StatefulPartitionedCall/multilevel_roi_aligner_1/multilevel_crop_and_resize/mul_10", "op": "Const", "attr": {"value": {"tensor": {"dtype": "DT_FLOAT", "tensorShape": {}}}, "dtype": {"type": "DT_FLOAT"}}}, {"name": "StatefulPartitionedCall/multilevel_roi_aligner_1/multilevel_crop_and_resize/strided_slice_34/stack", "op": "Const", "attr": {"value": {"tensor": {"dtype": "DT_INT32", "tensorShape": {"dim": [{"size": "3"}]}}}, "dtype": {"type": "DT_INT32"}}}, {"name": "StatefulPartitionedCall/multilevel_roi_aligner_1/multilevel_crop_and_resize/strided_slice_34/stack_1", "op": "Const", "attr": {"dtype": {"type": "DT_INT32"}, "value": {"tensor": {"dtype": "DT_INT32", "tensorShape": {"dim": [{"size": "3"}]}}}}}, {"name": "StatefulPartitionedCall/multilevel_roi_aligner_1/multilevel_crop_and_resize/strided_slice_34/stack_2", "op": "Const", "attr": {"dtype": {"type": "DT_INT32"}, "value": {"tensor": {"dtype": "DT_INT32", "tensorShape": {"dim": [{"size": "3"}]}}}}}, {"name": "StatefulPartitionedCall/multilevel_roi_aligner_1/multilevel_crop_and_resize/strided_slice_35/stack", "op": "Const", "attr": {"dtype": {"type": "DT_INT32"}, "value": {"tensor": {"dtype": "DT_INT32", "tensorShape": {"dim": [{"size": "3"}]}}}}}, {"name": "StatefulPartitionedCall/multilevel_roi_aligner_1/multilevel_crop_and_resize/strided_slice_35/stack_1", "op": "Const", "attr": {"dtype": {"type": "DT_INT32"}, "value": {"tensor": {"dtype": "DT_INT32", "tensorShape": {"dim": [{"size": "3"}]}}}}}, {"name": "StatefulPartitionedCall/multilevel_roi_aligner_1/multilevel_crop_and_resize/strided_slice_35/stack_2", "op": "Const", "attr": {"value": {"tensor": {"dtype": "DT_INT32", "tensorShape": {"dim": [{"size": "3"}]}}}, "dtype": {"type": "DT_INT32"}}}, {"name": "StatefulPartitionedCall/multilevel_roi_aligner_1/multilevel_crop_and_resize/mul_12", "op": "Const", "attr": {"dtype": {"type": "DT_FLOAT"}, "value": {"tensor": {"dtype": "DT_FLOAT", "tensorShape": {}}}}}, {"name": "StatefulPartitionedCall/multilevel_roi_aligner_1/multilevel_crop_and_resize/strided_slice_38/stack", "op": "Const", "attr": {"dtype": {"type": "DT_INT32"}, "value": {"tensor": {"dtype": "DT_INT32", "tensorShape": {"dim": [{"size": "3"}]}}}}}, {"name": "StatefulPartitionedCall/multilevel_roi_aligner_1/multilevel_crop_and_resize/strided_slice_38/stack_1", "op": "Const", "attr": {"value": {"tensor": {"dtype": "DT_INT32", "tensorShape": {"dim": [{"size": "3"}]}}}, "dtype": {"type": "DT_INT32"}}}, {"name": "StatefulPartitionedCall/multilevel_roi_aligner_1/multilevel_crop_and_resize/strided_slice_38/stack_2", "op": "Const", "attr": {"value": {"tensor": {"dtype": "DT_INT32", "tensorShape": {"dim": [{"size": "3"}]}}}, "dtype": {"type": "DT_INT32"}}}, {"name": "StatefulPartitionedCall/multilevel_roi_aligner_1/multilevel_crop_and_resize/strided_slice_39/stack", "op": "Const", "attr": {"value": {"tensor": {"dtype": "DT_INT32", "tensorShape": {"dim": [{"size": "3"}]}}}, "dtype": {"type": "DT_INT32"}}}, {"name": "StatefulPartitionedCall/multilevel_roi_aligner_1/multilevel_crop_and_resize/strided_slice_39/stack_1", "op": "Const", "attr": {"dtype": {"type": "DT_INT32"}, "value": {"tensor": {"dtype": "DT_INT32", "tensorShape": {"dim": [{"size": "3"}]}}}}}, {"name": "StatefulPartitionedCall/multilevel_roi_aligner_1/multilevel_crop_and_resize/strided_slice_39/stack_2", "op": "Const", "attr": {"dtype": {"type": "DT_INT32"}, "value": {"tensor": {"dtype": "DT_INT32", "tensorShape": {"dim": [{"size": "3"}]}}}}}, {"name": "StatefulPartitionedCall/multilevel_roi_aligner_1/multilevel_crop_and_resize/mul_14", "op": "Const", "attr": {"dtype": {"type": "DT_FLOAT"}, "value": {"tensor": {"dtype": "DT_FLOAT", "tensorShape": {}}}}}, {"name": "StatefulPartitionedCall/multilevel_roi_aligner_1/multilevel_crop_and_resize/strided_slice_42/stack", "op": "Const", "attr": {"dtype": {"type": "DT_INT32"}, "value": {"tensor": {"dtype": "DT_INT32", "tensorShape": {"dim": [{"size": "3"}]}}}}}, {"name": "StatefulPartitionedCall/multilevel_roi_aligner_1/multilevel_crop_and_resize/strided_slice_42/stack_1", "op": "Const", "attr": {"dtype": {"type": "DT_INT32"}, "value": {"tensor": {"dtype": "DT_INT32", "tensorShape": {"dim": [{"size": "3"}]}}}}}, {"name": "StatefulPartitionedCall/multilevel_roi_aligner_1/multilevel_crop_and_resize/strided_slice_42/stack_2", "op": "Const", "attr": {"value": {"tensor": {"dtype": "DT_INT32", "tensorShape": {"dim": [{"size": "3"}]}}}, "dtype": {"type": "DT_INT32"}}}, {"name": "StatefulPartitionedCall/multilevel_roi_aligner_1/multilevel_crop_and_resize/strided_slice_43/stack", "op": "Const", "attr": {"value": {"tensor": {"dtype": "DT_INT32", "tensorShape": {"dim": [{"size": "3"}]}}}, "dtype": {"type": "DT_INT32"}}}, {"name": "StatefulPartitionedCall/multilevel_roi_aligner_1/multilevel_crop_and_resize/strided_slice_43/stack_1", "op": "Const", "attr": {"dtype": {"type": "DT_INT32"}, "value": {"tensor": {"dtype": "DT_INT32", "tensorShape": {"dim": [{"size": "3"}]}}}}}, {"name": "StatefulPartitionedCall/multilevel_roi_aligner_1/multilevel_crop_and_resize/strided_slice_43/stack_2", "op": "Const", "attr": {"dtype": {"type": "DT_INT32"}, "value": {"tensor": {"dtype": "DT_INT32", "tensorShape": {"dim": [{"size": "3"}]}}}}}, {"name": "StatefulPartitionedCall/multilevel_roi_aligner_1/multilevel_crop_and_resize/mul_16", "op": "Const", "attr": {"dtype": {"type": "DT_FLOAT"}, "value": {"tensor": {"dtype": "DT_FLOAT", "tensorShape": {}}}}}, {"name": "StatefulPartitionedCall/multilevel_roi_aligner_1/multilevel_crop_and_resize/strided_slice_46/stack", "op": "Const", "attr": {"value": {"tensor": {"dtype": "DT_INT32", "tensorShape": {"dim": [{"size": "3"}]}}}, "dtype": {"type": "DT_INT32"}}}, {"name": "StatefulPartitionedCall/multilevel_roi_aligner_1/multilevel_crop_and_resize/strided_slice_46/stack_1", "op": "Const", "attr": {"value": {"tensor": {"dtype": "DT_INT32", "tensorShape": {"dim": [{"size": "3"}]}}}, "dtype": {"type": "DT_INT32"}}}, {"name": "StatefulPartitionedCall/multilevel_roi_aligner_1/multilevel_crop_and_resize/strided_slice_46/stack_2", "op": "Const", "attr": {"value": {"tensor": {"dtype": "DT_INT32", "tensorShape": {"dim": [{"size": "3"}]}}}, "dtype": {"type": "DT_INT32"}}}, {"name": "StatefulPartitionedCall/multilevel_roi_aligner_1/multilevel_crop_and_resize/strided_slice_47/stack", "op": "Const", "attr": {"dtype": {"type": "DT_INT32"}, "value": {"tensor": {"dtype": "DT_INT32", "tensorShape": {"dim": [{"size": "3"}]}}}}}, {"name": "StatefulPartitionedCall/multilevel_roi_aligner_1/multilevel_crop_and_resize/strided_slice_47/stack_1", "op": "Const", "attr": {"value": {"tensor": {"dtype": "DT_INT32", "tensorShape": {"dim": [{"size": "3"}]}}}, "dtype": {"type": "DT_INT32"}}}, {"name": "StatefulPartitionedCall/multilevel_roi_aligner_1/multilevel_crop_and_resize/strided_slice_47/stack_2", "op": "Const", "attr": {"dtype": {"type": "DT_INT32"}, "value": {"tensor": {"dtype": "DT_INT32", "tensorShape": {"dim": [{"size": "3"}]}}}}}, {"name": "StatefulPartitionedCall/multilevel_roi_aligner_1/multilevel_crop_and_resize/mul_18", "op": "Const", "attr": {"dtype": {"type": "DT_FLOAT"}, "value": {"tensor": {"dtype": "DT_FLOAT", "tensorShape": {}}}}}, {"name": "StatefulPartitionedCall/multilevel_roi_aligner_1/multilevel_crop_and_resize/strided_slice_50/stack", "op": "Const", "attr": {"dtype": {"type": "DT_INT32"}, "value": {"tensor": {"dtype": "DT_INT32", "tensorShape": {"dim": [{"size": "3"}]}}}}}, {"name": "StatefulPartitionedCall/multilevel_roi_aligner_1/multilevel_crop_and_resize/strided_slice_50/stack_1", "op": "Const", "attr": {"dtype": {"type": "DT_INT32"}, "value": {"tensor": {"dtype": "DT_INT32", "tensorShape": {"dim": [{"size": "3"}]}}}}}, {"name": "StatefulPartitionedCall/multilevel_roi_aligner_1/multilevel_crop_and_resize/strided_slice_50/stack_2", "op": "Const", "attr": {"dtype": {"type": "DT_INT32"}, "value": {"tensor": {"dtype": "DT_INT32", "tensorShape": {"dim": [{"size": "3"}]}}}}}, {"name": "StatefulPartitionedCall/multilevel_roi_aligner_1/multilevel_crop_and_resize/strided_slice_51/stack", "op": "Const", "attr": {"value": {"tensor": {"dtype": "DT_INT32", "tensorShape": {"dim": [{"size": "3"}]}}}, "dtype": {"type": "DT_INT32"}}}, {"name": "StatefulPartitionedCall/multilevel_roi_aligner_1/multilevel_crop_and_resize/strided_slice_51/stack_1", "op": "Const", "attr": {"dtype": {"type": "DT_INT32"}, "value": {"tensor": {"dtype": "DT_INT32", "tensorShape": {"dim": [{"size": "3"}]}}}}}, {"name": "StatefulPartitionedCall/multilevel_roi_aligner_1/multilevel_crop_and_resize/strided_slice_51/stack_2", "op": "Const", "attr": {"value": {"tensor": {"dtype": "DT_INT32", "tensorShape": {"dim": [{"size": "3"}]}}}, "dtype": {"type": "DT_INT32"}}}, {"name": "StatefulPartitionedCall/multilevel_roi_aligner_1/multilevel_crop_and_resize/mul_20", "op": "Const", "attr": {"dtype": {"type": "DT_FLOAT"}, "value": {"tensor": {"dtype": "DT_FLOAT", "tensorShape": {}}}}}, {"name": "StatefulPartitionedCall/multilevel_roi_aligner_1/multilevel_crop_and_resize/strided_slice_54/stack", "op": "Const", "attr": {"dtype": {"type": "DT_INT32"}, "value": {"tensor": {"dtype": "DT_INT32", "tensorShape": {"dim": [{"size": "3"}]}}}}}, {"name": "StatefulPartitionedCall/multilevel_roi_aligner_1/multilevel_crop_and_resize/strided_slice_54/stack_1", "op": "Const", "attr": {"dtype": {"type": "DT_INT32"}, "value": {"tensor": {"dtype": "DT_INT32", "tensorShape": {"dim": [{"size": "3"}]}}}}}, {"name": "StatefulPartitionedCall/multilevel_roi_aligner_1/multilevel_crop_and_resize/strided_slice_54/stack_2", "op": "Const", "attr": {"dtype": {"type": "DT_INT32"}, "value": {"tensor": {"dtype": "DT_INT32", "tensorShape": {"dim": [{"size": "3"}]}}}}}, {"name": "StatefulPartitionedCall/multilevel_roi_aligner_1/multilevel_crop_and_resize/strided_slice_55/stack", "op": "Const", "attr": {"value": {"tensor": {"dtype": "DT_INT32", "tensorShape": {"dim": [{"size": "3"}]}}}, "dtype": {"type": "DT_INT32"}}}, {"name": "StatefulPartitionedCall/multilevel_roi_aligner_1/multilevel_crop_and_resize/strided_slice_55/stack_1", "op": "Const", "attr": {"value": {"tensor": {"dtype": "DT_INT32", "tensorShape": {"dim": [{"size": "3"}]}}}, "dtype": {"type": "DT_INT32"}}}, {"name": "StatefulPartitionedCall/multilevel_roi_aligner_1/multilevel_crop_and_resize/strided_slice_55/stack_2", "op": "Const", "attr": {"dtype": {"type": "DT_INT32"}, "value": {"tensor": {"dtype": "DT_INT32", "tensorShape": {"dim": [{"size": "3"}]}}}}}, {"name": "StatefulPartitionedCall/multilevel_roi_aligner_1/multilevel_crop_and_resize/mul_22", "op": "Const", "attr": {"value": {"tensor": {"dtype": "DT_FLOAT", "tensorShape": {}}}, "dtype": {"type": "DT_FLOAT"}}}, {"name": "StatefulPartitionedCall/multilevel_roi_aligner_1/multilevel_crop_and_resize/strided_slice_58/stack", "op": "Const", "attr": {"value": {"tensor": {"dtype": "DT_INT32", "tensorShape": {"dim": [{"size": "3"}]}}}, "dtype": {"type": "DT_INT32"}}}, {"name": "StatefulPartitionedCall/multilevel_roi_aligner_1/multilevel_crop_and_resize/strided_slice_58/stack_1", "op": "Const", "attr": {"value": {"tensor": {"dtype": "DT_INT32", "tensorShape": {"dim": [{"size": "3"}]}}}, "dtype": {"type": "DT_INT32"}}}, {"name": "StatefulPartitionedCall/multilevel_roi_aligner_1/multilevel_crop_and_resize/strided_slice_58/stack_2", "op": "Const", "attr": {"dtype": {"type": "DT_INT32"}, "value": {"tensor": {"dtype": "DT_INT32", "tensorShape": {"dim": [{"size": "3"}]}}}}}, {"name": "StatefulPartitionedCall/multilevel_roi_aligner_1/multilevel_crop_and_resize/strided_slice_59/stack", "op": "Const", "attr": {"dtype": {"type": "DT_INT32"}, "value": {"tensor": {"dtype": "DT_INT32", "tensorShape": {"dim": [{"size": "3"}]}}}}}, {"name": "StatefulPartitionedCall/multilevel_roi_aligner_1/multilevel_crop_and_resize/strided_slice_59/stack_1", "op": "Const", "attr": {"value": {"tensor": {"dtype": "DT_INT32", "tensorShape": {"dim": [{"size": "3"}]}}}, "dtype": {"type": "DT_INT32"}}}, {"name": "StatefulPartitionedCall/multilevel_roi_aligner_1/multilevel_crop_and_resize/strided_slice_59/stack_2", "op": "Const", "attr": {"dtype": {"type": "DT_INT32"}, "value": {"tensor": {"dtype": "DT_INT32", "tensorShape": {"dim": [{"size": "3"}]}}}}}, {"name": "StatefulPartitionedCall/multilevel_roi_aligner_1/multilevel_crop_and_resize/mul_24", "op": "Const", "attr": {"value": {"tensor": {"dtype": "DT_FLOAT", "tensorShape": {}}}, "dtype": {"type": "DT_FLOAT"}}}, {"name": "StatefulPartitionedCall/multilevel_roi_aligner_1/multilevel_crop_and_resize/strided_slice_62/stack", "op": "Const", "attr": {"value": {"tensor": {"dtype": "DT_INT32", "tensorShape": {"dim": [{"size": "3"}]}}}, "dtype": {"type": "DT_INT32"}}}, {"name": "StatefulPartitionedCall/multilevel_roi_aligner_1/multilevel_crop_and_resize/strided_slice_62/stack_1", "op": "Const", "attr": {"dtype": {"type": "DT_INT32"}, "value": {"tensor": {"dtype": "DT_INT32", "tensorShape": {"dim": [{"size": "3"}]}}}}}, {"name": "StatefulPartitionedCall/multilevel_roi_aligner_1/multilevel_crop_and_resize/strided_slice_62/stack_2", "op": "Const", "attr": {"dtype": {"type": "DT_INT32"}, "value": {"tensor": {"dtype": "DT_INT32", "tensorShape": {"dim": [{"size": "3"}]}}}}}, {"name": "StatefulPartitionedCall/multilevel_roi_aligner_1/multilevel_crop_and_resize/strided_slice_63/stack", "op": "Const", "attr": {"value": {"tensor": {"dtype": "DT_INT32", "tensorShape": {"dim": [{"size": "3"}]}}}, "dtype": {"type": "DT_INT32"}}}, {"name": "StatefulPartitionedCall/multilevel_roi_aligner_1/multilevel_crop_and_resize/strided_slice_63/stack_1", "op": "Const", "attr": {"dtype": {"type": "DT_INT32"}, "value": {"tensor": {"dtype": "DT_INT32", "tensorShape": {"dim": [{"size": "3"}]}}}}}, {"name": "StatefulPartitionedCall/multilevel_roi_aligner_1/multilevel_crop_and_resize/strided_slice_63/stack_2", "op": "Const", "attr": {"value": {"tensor": {"dtype": "DT_INT32", "tensorShape": {"dim": [{"size": "3"}]}}}, "dtype": {"type": "DT_INT32"}}}, {"name": "StatefulPartitionedCall/multilevel_roi_aligner_1/multilevel_crop_and_resize/mul_26", "op": "Const", "attr": {"value": {"tensor": {"dtype": "DT_FLOAT", "tensorShape": {}}}, "dtype": {"type": "DT_FLOAT"}}}, {"name": "StatefulPartitionedCall/multilevel_roi_aligner_1/multilevel_crop_and_resize/strided_slice_66/stack", "op": "Const", "attr": {"value": {"tensor": {"dtype": "DT_INT32", "tensorShape": {"dim": [{"size": "3"}]}}}, "dtype": {"type": "DT_INT32"}}}, {"name": "StatefulPartitionedCall/multilevel_roi_aligner_1/multilevel_crop_and_resize/strided_slice_66/stack_1", "op": "Const", "attr": {"dtype": {"type": "DT_INT32"}, "value": {"tensor": {"dtype": "DT_INT32", "tensorShape": {"dim": [{"size": "3"}]}}}}}, {"name": "StatefulPartitionedCall/multilevel_roi_aligner_1/multilevel_crop_and_resize/strided_slice_66/stack_2", "op": "Const", "attr": {"value": {"tensor": {"dtype": "DT_INT32", "tensorShape": {"dim": [{"size": "3"}]}}}, "dtype": {"type": "DT_INT32"}}}, {"name": "StatefulPartitionedCall/multilevel_roi_aligner_1/multilevel_crop_and_resize/strided_slice_67/stack", "op": "Const", "attr": {"value": {"tensor": {"dtype": "DT_INT32", "tensorShape": {"dim": [{"size": "3"}]}}}, "dtype": {"type": "DT_INT32"}}}, {"name": "StatefulPartitionedCall/multilevel_roi_aligner_1/multilevel_crop_and_resize/strided_slice_67/stack_1", "op": "Const", "attr": {"value": {"tensor": {"dtype": "DT_INT32", "tensorShape": {"dim": [{"size": "3"}]}}}, "dtype": {"type": "DT_INT32"}}}, {"name": "StatefulPartitionedCall/multilevel_roi_aligner_1/multilevel_crop_and_resize/strided_slice_67/stack_2", "op": "Const", "attr": {"dtype": {"type": "DT_INT32"}, "value": {"tensor": {"dtype": "DT_INT32", "tensorShape": {"dim": [{"size": "3"}]}}}}}, {"name": "StatefulPartitionedCall/multilevel_roi_aligner_1/multilevel_crop_and_resize/mul_28", "op": "Const", "attr": {"value": {"tensor": {"dtype": "DT_FLOAT", "tensorShape": {}}}, "dtype": {"type": "DT_FLOAT"}}}, {"name": "StatefulPartitionedCall/multilevel_roi_aligner_1/multilevel_crop_and_resize/strided_slice_70/stack", "op": "Const", "attr": {"value": {"tensor": {"dtype": "DT_INT32", "tensorShape": {"dim": [{"size": "3"}]}}}, "dtype": {"type": "DT_INT32"}}}, {"name": "StatefulPartitionedCall/multilevel_roi_aligner_1/multilevel_crop_and_resize/strided_slice_70/stack_1", "op": "Const", "attr": {"value": {"tensor": {"dtype": "DT_INT32", "tensorShape": {"dim": [{"size": "3"}]}}}, "dtype": {"type": "DT_INT32"}}}, {"name": "StatefulPartitionedCall/multilevel_roi_aligner_1/multilevel_crop_and_resize/strided_slice_70/stack_2", "op": "Const", "attr": {"dtype": {"type": "DT_INT32"}, "value": {"tensor": {"dtype": "DT_INT32", "tensorShape": {"dim": [{"size": "3"}]}}}}}, {"name": "StatefulPartitionedCall/multilevel_roi_aligner_1/multilevel_crop_and_resize/ExpandDims_7/dim", "op": "Const", "attr": {"value": {"tensor": {"dtype": "DT_INT32", "tensorShape": {}}}, "dtype": {"type": "DT_INT32"}}}, {"name": "StatefulPartitionedCall/multilevel_roi_aligner_1/multilevel_crop_and_resize/Reshape_16/shape", "op": "Const", "attr": {"value": {"tensor": {"dtype": "DT_INT32", "tensorShape": {"dim": [{"size": "4"}]}}}, "dtype": {"type": "DT_INT32"}}}, {"name": "StatefulPartitionedCall/multilevel_roi_aligner_1/multilevel_crop_and_resize/sub_8/x", "op": "Const", "attr": {"value": {"tensor": {"dtype": "DT_FLOAT", "tensorShape": {}}}, "dtype": {"type": "DT_FLOAT"}}}, {"name": "StatefulPartitionedCall/multilevel_roi_aligner_1/multilevel_crop_and_resize/Cast_5/x", "op": "Const", "attr": {"value": {"tensor": {"dtype": "DT_FLOAT", "tensorShape": {}}}, "dtype": {"type": "DT_FLOAT"}}}, {"name": "StatefulPartitionedCall/multilevel_roi_aligner_1/multilevel_crop_and_resize/strided_slice_12/stack", "op": "Const", "attr": {"dtype": {"type": "DT_INT32"}, "value": {"tensor": {"dtype": "DT_INT32", "tensorShape": {"dim": [{"size": "3"}]}}}}}, {"name": "StatefulPartitionedCall/multilevel_roi_aligner_1/multilevel_crop_and_resize/strided_slice_12/stack_1", "op": "Const", "attr": {"value": {"tensor": {"dtype": "DT_INT32", "tensorShape": {"dim": [{"size": "3"}]}}}, "dtype": {"type": "DT_INT32"}}}, {"name": "StatefulPartitionedCall/multilevel_roi_aligner_1/multilevel_crop_and_resize/strided_slice_12/stack_2", "op": "Const", "attr": {"value": {"tensor": {"dtype": "DT_INT32", "tensorShape": {"dim": [{"size": "3"}]}}}, "dtype": {"type": "DT_INT32"}}}, {"name": "StatefulPartitionedCall/multilevel_roi_aligner_1/multilevel_crop_and_resize/strided_slice_13/stack", "op": "Const", "attr": {"dtype": {"type": "DT_INT32"}, "value": {"tensor": {"dtype": "DT_INT32", "tensorShape": {"dim": [{"size": "3"}]}}}}}, {"name": "StatefulPartitionedCall/multilevel_roi_aligner_1/multilevel_crop_and_resize/strided_slice_13/stack_1", "op": "Const", "attr": {"value": {"tensor": {"dtype": "DT_INT32", "tensorShape": {"dim": [{"size": "3"}]}}}, "dtype": {"type": "DT_INT32"}}}, {"name": "StatefulPartitionedCall/multilevel_roi_aligner_1/multilevel_crop_and_resize/strided_slice_13/stack_2", "op": "Const", "attr": {"value": {"tensor": {"dtype": "DT_INT32", "tensorShape": {"dim": [{"size": "3"}]}}}, "dtype": {"type": "DT_INT32"}}}, {"name": "StatefulPartitionedCall/multilevel_roi_aligner_1/multilevel_crop_and_resize/mul_1", "op": "Const", "attr": {"dtype": {"type": "DT_FLOAT"}, "value": {"tensor": {"dtype": "DT_FLOAT", "tensorShape": {}}}}}, {"name": "StatefulPartitionedCall/multilevel_roi_aligner_1/multilevel_crop_and_resize/strided_slice_16/stack", "op": "Const", "attr": {"value": {"tensor": {"dtype": "DT_INT32", "tensorShape": {"dim": [{"size": "3"}]}}}, "dtype": {"type": "DT_INT32"}}}, {"name": "StatefulPartitionedCall/multilevel_roi_aligner_1/multilevel_crop_and_resize/strided_slice_16/stack_1", "op": "Const", "attr": {"value": {"tensor": {"dtype": "DT_INT32", "tensorShape": {"dim": [{"size": "3"}]}}}, "dtype": {"type": "DT_INT32"}}}, {"name": "StatefulPartitionedCall/multilevel_roi_aligner_1/multilevel_crop_and_resize/strided_slice_16/stack_2", "op": "Const", "attr": {"dtype": {"type": "DT_INT32"}, "value": {"tensor": {"dtype": "DT_INT32", "tensorShape": {"dim": [{"size": "3"}]}}}}}, {"name": "StatefulPartitionedCall/multilevel_roi_aligner_1/multilevel_crop_and_resize/strided_slice_17/stack", "op": "Const", "attr": {"dtype": {"type": "DT_INT32"}, "value": {"tensor": {"dtype": "DT_INT32", "tensorShape": {"dim": [{"size": "3"}]}}}}}, {"name": "StatefulPartitionedCall/multilevel_roi_aligner_1/multilevel_crop_and_resize/strided_slice_17/stack_1", "op": "Const", "attr": {"value": {"tensor": {"dtype": "DT_INT32", "tensorShape": {"dim": [{"size": "3"}]}}}, "dtype": {"type": "DT_INT32"}}}, {"name": "StatefulPartitionedCall/multilevel_roi_aligner_1/multilevel_crop_and_resize/strided_slice_17/stack_2", "op": "Const", "attr": {"value": {"tensor": {"dtype": "DT_INT32", "tensorShape": {"dim": [{"size": "3"}]}}}, "dtype": {"type": "DT_INT32"}}}, {"name": "StatefulPartitionedCall/multilevel_roi_aligner_1/multilevel_crop_and_resize/mul_3", "op": "Const", "attr": {"dtype": {"type": "DT_FLOAT"}, "value": {"tensor": {"dtype": "DT_FLOAT", "tensorShape": {}}}}}, {"name": "StatefulPartitionedCall/multilevel_roi_aligner_1/multilevel_crop_and_resize/strided_slice_20/stack", "op": "Const", "attr": {"dtype": {"type": "DT_INT32"}, "value": {"tensor": {"dtype": "DT_INT32", "tensorShape": {"dim": [{"size": "3"}]}}}}}, {"name": "StatefulPartitionedCall/multilevel_roi_aligner_1/multilevel_crop_and_resize/strided_slice_20/stack_1", "op": "Const", "attr": {"dtype": {"type": "DT_INT32"}, "value": {"tensor": {"dtype": "DT_INT32", "tensorShape": {"dim": [{"size": "3"}]}}}}}, {"name": "StatefulPartitionedCall/multilevel_roi_aligner_1/multilevel_crop_and_resize/strided_slice_20/stack_2", "op": "Const", "attr": {"value": {"tensor": {"dtype": "DT_INT32", "tensorShape": {"dim": [{"size": "3"}]}}}, "dtype": {"type": "DT_INT32"}}}, {"name": "StatefulPartitionedCall/multilevel_roi_aligner_1/multilevel_crop_and_resize/strided_slice_21/stack", "op": "Const", "attr": {"dtype": {"type": "DT_INT32"}, "value": {"tensor": {"dtype": "DT_INT32", "tensorShape": {"dim": [{"size": "3"}]}}}}}, {"name": "StatefulPartitionedCall/multilevel_roi_aligner_1/multilevel_crop_and_resize/strided_slice_21/stack_1", "op": "Const", "attr": {"value": {"tensor": {"dtype": "DT_INT32", "tensorShape": {"dim": [{"size": "3"}]}}}, "dtype": {"type": "DT_INT32"}}}, {"name": "StatefulPartitionedCall/multilevel_roi_aligner_1/multilevel_crop_and_resize/strided_slice_21/stack_2", "op": "Const", "attr": {"value": {"tensor": {"dtype": "DT_INT32", "tensorShape": {"dim": [{"size": "3"}]}}}, "dtype": {"type": "DT_INT32"}}}, {"name": "StatefulPartitionedCall/multilevel_roi_aligner_1/multilevel_crop_and_resize/mul_5", "op": "Const", "attr": {"value": {"tensor": {"dtype": "DT_FLOAT", "tensorShape": {}}}, "dtype": {"type": "DT_FLOAT"}}}, {"name": "StatefulPartitionedCall/multilevel_roi_aligner_1/multilevel_crop_and_resize/strided_slice_24/stack", "op": "Const", "attr": {"value": {"tensor": {"dtype": "DT_INT32", "tensorShape": {"dim": [{"size": "3"}]}}}, "dtype": {"type": "DT_INT32"}}}, {"name": "StatefulPartitionedCall/multilevel_roi_aligner_1/multilevel_crop_and_resize/strided_slice_24/stack_1", "op": "Const", "attr": {"value": {"tensor": {"dtype": "DT_INT32", "tensorShape": {"dim": [{"size": "3"}]}}}, "dtype": {"type": "DT_INT32"}}}, {"name": "StatefulPartitionedCall/multilevel_roi_aligner_1/multilevel_crop_and_resize/strided_slice_24/stack_2", "op": "Const", "attr": {"dtype": {"type": "DT_INT32"}, "value": {"tensor": {"dtype": "DT_INT32", "tensorShape": {"dim": [{"size": "3"}]}}}}}, {"name": "StatefulPartitionedCall/multilevel_roi_aligner_1/multilevel_crop_and_resize/strided_slice_25/stack", "op": "Const", "attr": {"value": {"tensor": {"dtype": "DT_INT32", "tensorShape": {"dim": [{"size": "3"}]}}}, "dtype": {"type": "DT_INT32"}}}, {"name": "StatefulPartitionedCall/multilevel_roi_aligner_1/multilevel_crop_and_resize/strided_slice_25/stack_1", "op": "Const", "attr": {"dtype": {"type": "DT_INT32"}, "value": {"tensor": {"dtype": "DT_INT32", "tensorShape": {"dim": [{"size": "3"}]}}}}}, {"name": "StatefulPartitionedCall/multilevel_roi_aligner_1/multilevel_crop_and_resize/strided_slice_25/stack_2", "op": "Const", "attr": {"value": {"tensor": {"dtype": "DT_INT32", "tensorShape": {"dim": [{"size": "3"}]}}}, "dtype": {"type": "DT_INT32"}}}, {"name": "StatefulPartitionedCall/multilevel_roi_aligner_1/multilevel_crop_and_resize/mul_7", "op": "Const", "attr": {"dtype": {"type": "DT_FLOAT"}, "value": {"tensor": {"dtype": "DT_FLOAT", "tensorShape": {}}}}}, {"name": "StatefulPartitionedCall/multilevel_roi_aligner_1/multilevel_crop_and_resize/strided_slice_28/stack", "op": "Const", "attr": {"dtype": {"type": "DT_INT32"}, "value": {"tensor": {"dtype": "DT_INT32", "tensorShape": {"dim": [{"size": "3"}]}}}}}, {"name": "StatefulPartitionedCall/multilevel_roi_aligner_1/multilevel_crop_and_resize/strided_slice_28/stack_1", "op": "Const", "attr": {"dtype": {"type": "DT_INT32"}, "value": {"tensor": {"dtype": "DT_INT32", "tensorShape": {"dim": [{"size": "3"}]}}}}}, {"name": "StatefulPartitionedCall/multilevel_roi_aligner_1/multilevel_crop_and_resize/strided_slice_28/stack_2", "op": "Const", "attr": {"value": {"tensor": {"dtype": "DT_INT32", "tensorShape": {"dim": [{"size": "3"}]}}}, "dtype": {"type": "DT_INT32"}}}, {"name": "StatefulPartitionedCall/multilevel_roi_aligner_1/multilevel_crop_and_resize/strided_slice_29/stack", "op": "Const", "attr": {"dtype": {"type": "DT_INT32"}, "value": {"tensor": {"dtype": "DT_INT32", "tensorShape": {"dim": [{"size": "3"}]}}}}}, {"name": "StatefulPartitionedCall/multilevel_roi_aligner_1/multilevel_crop_and_resize/strided_slice_29/stack_1", "op": "Const", "attr": {"dtype": {"type": "DT_INT32"}, "value": {"tensor": {"dtype": "DT_INT32", "tensorShape": {"dim": [{"size": "3"}]}}}}}, {"name": "StatefulPartitionedCall/multilevel_roi_aligner_1/multilevel_crop_and_resize/strided_slice_29/stack_2", "op": "Const", "attr": {"value": {"tensor": {"dtype": "DT_INT32", "tensorShape": {"dim": [{"size": "3"}]}}}, "dtype": {"type": "DT_INT32"}}}, {"name": "StatefulPartitionedCall/multilevel_roi_aligner_1/multilevel_crop_and_resize/mul_9", "op": "Const", "attr": {"dtype": {"type": "DT_FLOAT"}, "value": {"tensor": {"dtype": "DT_FLOAT", "tensorShape": {}}}}}, {"name": "StatefulPartitionedCall/multilevel_roi_aligner_1/multilevel_crop_and_resize/strided_slice_32/stack", "op": "Const", "attr": {"dtype": {"type": "DT_INT32"}, "value": {"tensor": {"dtype": "DT_INT32", "tensorShape": {"dim": [{"size": "3"}]}}}}}, {"name": "StatefulPartitionedCall/multilevel_roi_aligner_1/multilevel_crop_and_resize/strided_slice_32/stack_1", "op": "Const", "attr": {"dtype": {"type": "DT_INT32"}, "value": {"tensor": {"dtype": "DT_INT32", "tensorShape": {"dim": [{"size": "3"}]}}}}}, {"name": "StatefulPartitionedCall/multilevel_roi_aligner_1/multilevel_crop_and_resize/strided_slice_32/stack_2", "op": "Const", "attr": {"value": {"tensor": {"dtype": "DT_INT32", "tensorShape": {"dim": [{"size": "3"}]}}}, "dtype": {"type": "DT_INT32"}}}, {"name": "StatefulPartitionedCall/multilevel_roi_aligner_1/multilevel_crop_and_resize/strided_slice_33/stack", "op": "Const", "attr": {"value": {"tensor": {"dtype": "DT_INT32", "tensorShape": {"dim": [{"size": "3"}]}}}, "dtype": {"type": "DT_INT32"}}}, {"name": "StatefulPartitionedCall/multilevel_roi_aligner_1/multilevel_crop_and_resize/strided_slice_33/stack_1", "op": "Const", "attr": {"dtype": {"type": "DT_INT32"}, "value": {"tensor": {"dtype": "DT_INT32", "tensorShape": {"dim": [{"size": "3"}]}}}}}, {"name": "StatefulPartitionedCall/multilevel_roi_aligner_1/multilevel_crop_and_resize/strided_slice_33/stack_2", "op": "Const", "attr": {"value": {"tensor": {"dtype": "DT_INT32", "tensorShape": {"dim": [{"size": "3"}]}}}, "dtype": {"type": "DT_INT32"}}}, {"name": "StatefulPartitionedCall/multilevel_roi_aligner_1/multilevel_crop_and_resize/mul_11", "op": "Const", "attr": {"value": {"tensor": {"dtype": "DT_FLOAT", "tensorShape": {}}}, "dtype": {"type": "DT_FLOAT"}}}, {"name": "StatefulPartitionedCall/multilevel_roi_aligner_1/multilevel_crop_and_resize/strided_slice_36/stack", "op": "Const", "attr": {"value": {"tensor": {"dtype": "DT_INT32", "tensorShape": {"dim": [{"size": "3"}]}}}, "dtype": {"type": "DT_INT32"}}}, {"name": "StatefulPartitionedCall/multilevel_roi_aligner_1/multilevel_crop_and_resize/strided_slice_36/stack_1", "op": "Const", "attr": {"value": {"tensor": {"dtype": "DT_INT32", "tensorShape": {"dim": [{"size": "3"}]}}}, "dtype": {"type": "DT_INT32"}}}, {"name": "StatefulPartitionedCall/multilevel_roi_aligner_1/multilevel_crop_and_resize/strided_slice_36/stack_2", "op": "Const", "attr": {"dtype": {"type": "DT_INT32"}, "value": {"tensor": {"dtype": "DT_INT32", "tensorShape": {"dim": [{"size": "3"}]}}}}}, {"name": "StatefulPartitionedCall/multilevel_roi_aligner_1/multilevel_crop_and_resize/strided_slice_37/stack", "op": "Const", "attr": {"value": {"tensor": {"dtype": "DT_INT32", "tensorShape": {"dim": [{"size": "3"}]}}}, "dtype": {"type": "DT_INT32"}}}, {"name": "StatefulPartitionedCall/multilevel_roi_aligner_1/multilevel_crop_and_resize/strided_slice_37/stack_1", "op": "Const", "attr": {"value": {"tensor": {"dtype": "DT_INT32", "tensorShape": {"dim": [{"size": "3"}]}}}, "dtype": {"type": "DT_INT32"}}}, {"name": "StatefulPartitionedCall/multilevel_roi_aligner_1/multilevel_crop_and_resize/strided_slice_37/stack_2", "op": "Const", "attr": {"dtype": {"type": "DT_INT32"}, "value": {"tensor": {"dtype": "DT_INT32", "tensorShape": {"dim": [{"size": "3"}]}}}}}, {"name": "StatefulPartitionedCall/multilevel_roi_aligner_1/multilevel_crop_and_resize/mul_13", "op": "Const", "attr": {"dtype": {"type": "DT_FLOAT"}, "value": {"tensor": {"dtype": "DT_FLOAT", "tensorShape": {}}}}}, {"name": "StatefulPartitionedCall/multilevel_roi_aligner_1/multilevel_crop_and_resize/strided_slice_40/stack", "op": "Const", "attr": {"dtype": {"type": "DT_INT32"}, "value": {"tensor": {"dtype": "DT_INT32", "tensorShape": {"dim": [{"size": "3"}]}}}}}, {"name": "StatefulPartitionedCall/multilevel_roi_aligner_1/multilevel_crop_and_resize/strided_slice_40/stack_1", "op": "Const", "attr": {"dtype": {"type": "DT_INT32"}, "value": {"tensor": {"dtype": "DT_INT32", "tensorShape": {"dim": [{"size": "3"}]}}}}}, {"name": "StatefulPartitionedCall/multilevel_roi_aligner_1/multilevel_crop_and_resize/strided_slice_40/stack_2", "op": "Const", "attr": {"dtype": {"type": "DT_INT32"}, "value": {"tensor": {"dtype": "DT_INT32", "tensorShape": {"dim": [{"size": "3"}]}}}}}, {"name": "StatefulPartitionedCall/multilevel_roi_aligner_1/multilevel_crop_and_resize/strided_slice_41/stack", "op": "Const", "attr": {"dtype": {"type": "DT_INT32"}, "value": {"tensor": {"dtype": "DT_INT32", "tensorShape": {"dim": [{"size": "3"}]}}}}}, {"name": "StatefulPartitionedCall/multilevel_roi_aligner_1/multilevel_crop_and_resize/strided_slice_41/stack_1", "op": "Const", "attr": {"dtype": {"type": "DT_INT32"}, "value": {"tensor": {"dtype": "DT_INT32", "tensorShape": {"dim": [{"size": "3"}]}}}}}, {"name": "StatefulPartitionedCall/multilevel_roi_aligner_1/multilevel_crop_and_resize/strided_slice_41/stack_2", "op": "Const", "attr": {"value": {"tensor": {"dtype": "DT_INT32", "tensorShape": {"dim": [{"size": "3"}]}}}, "dtype": {"type": "DT_INT32"}}}, {"name": "StatefulPartitionedCall/multilevel_roi_aligner_1/multilevel_crop_and_resize/mul_15", "op": "Const", "attr": {"value": {"tensor": {"dtype": "DT_FLOAT", "tensorShape": {}}}, "dtype": {"type": "DT_FLOAT"}}}, {"name": "StatefulPartitionedCall/multilevel_roi_aligner_1/multilevel_crop_and_resize/strided_slice_44/stack", "op": "Const", "attr": {"value": {"tensor": {"dtype": "DT_INT32", "tensorShape": {"dim": [{"size": "3"}]}}}, "dtype": {"type": "DT_INT32"}}}, {"name": "StatefulPartitionedCall/multilevel_roi_aligner_1/multilevel_crop_and_resize/strided_slice_44/stack_1", "op": "Const", "attr": {"value": {"tensor": {"dtype": "DT_INT32", "tensorShape": {"dim": [{"size": "3"}]}}}, "dtype": {"type": "DT_INT32"}}}, {"name": "StatefulPartitionedCall/multilevel_roi_aligner_1/multilevel_crop_and_resize/strided_slice_44/stack_2", "op": "Const", "attr": {"value": {"tensor": {"dtype": "DT_INT32", "tensorShape": {"dim": [{"size": "3"}]}}}, "dtype": {"type": "DT_INT32"}}}, {"name": "StatefulPartitionedCall/multilevel_roi_aligner_1/multilevel_crop_and_resize/strided_slice_45/stack", "op": "Const", "attr": {"value": {"tensor": {"dtype": "DT_INT32", "tensorShape": {"dim": [{"size": "3"}]}}}, "dtype": {"type": "DT_INT32"}}}, {"name": "StatefulPartitionedCall/multilevel_roi_aligner_1/multilevel_crop_and_resize/strided_slice_45/stack_1", "op": "Const", "attr": {"value": {"tensor": {"dtype": "DT_INT32", "tensorShape": {"dim": [{"size": "3"}]}}}, "dtype": {"type": "DT_INT32"}}}, {"name": "StatefulPartitionedCall/multilevel_roi_aligner_1/multilevel_crop_and_resize/strided_slice_45/stack_2", "op": "Const", "attr": {"dtype": {"type": "DT_INT32"}, "value": {"tensor": {"dtype": "DT_INT32", "tensorShape": {"dim": [{"size": "3"}]}}}}}, {"name": "StatefulPartitionedCall/multilevel_roi_aligner_1/multilevel_crop_and_resize/mul_17", "op": "Const", "attr": {"dtype": {"type": "DT_FLOAT"}, "value": {"tensor": {"dtype": "DT_FLOAT", "tensorShape": {}}}}}, {"name": "StatefulPartitionedCall/multilevel_roi_aligner_1/multilevel_crop_and_resize/strided_slice_48/stack", "op": "Const", "attr": {"dtype": {"type": "DT_INT32"}, "value": {"tensor": {"dtype": "DT_INT32", "tensorShape": {"dim": [{"size": "3"}]}}}}}, {"name": "StatefulPartitionedCall/multilevel_roi_aligner_1/multilevel_crop_and_resize/strided_slice_48/stack_1", "op": "Const", "attr": {"dtype": {"type": "DT_INT32"}, "value": {"tensor": {"dtype": "DT_INT32", "tensorShape": {"dim": [{"size": "3"}]}}}}}, {"name": "StatefulPartitionedCall/multilevel_roi_aligner_1/multilevel_crop_and_resize/strided_slice_48/stack_2", "op": "Const", "attr": {"value": {"tensor": {"dtype": "DT_INT32", "tensorShape": {"dim": [{"size": "3"}]}}}, "dtype": {"type": "DT_INT32"}}}, {"name": "StatefulPartitionedCall/multilevel_roi_aligner_1/multilevel_crop_and_resize/strided_slice_49/stack", "op": "Const", "attr": {"dtype": {"type": "DT_INT32"}, "value": {"tensor": {"dtype": "DT_INT32", "tensorShape": {"dim": [{"size": "3"}]}}}}}, {"name": "StatefulPartitionedCall/multilevel_roi_aligner_1/multilevel_crop_and_resize/strided_slice_49/stack_1", "op": "Const", "attr": {"dtype": {"type": "DT_INT32"}, "value": {"tensor": {"dtype": "DT_INT32", "tensorShape": {"dim": [{"size": "3"}]}}}}}, {"name": "StatefulPartitionedCall/multilevel_roi_aligner_1/multilevel_crop_and_resize/strided_slice_49/stack_2", "op": "Const", "attr": {"dtype": {"type": "DT_INT32"}, "value": {"tensor": {"dtype": "DT_INT32", "tensorShape": {"dim": [{"size": "3"}]}}}}}, {"name": "StatefulPartitionedCall/multilevel_roi_aligner_1/multilevel_crop_and_resize/mul_19", "op": "Const", "attr": {"value": {"tensor": {"dtype": "DT_FLOAT", "tensorShape": {}}}, "dtype": {"type": "DT_FLOAT"}}}, {"name": "StatefulPartitionedCall/multilevel_roi_aligner_1/multilevel_crop_and_resize/strided_slice_52/stack", "op": "Const", "attr": {"dtype": {"type": "DT_INT32"}, "value": {"tensor": {"dtype": "DT_INT32", "tensorShape": {"dim": [{"size": "3"}]}}}}}, {"name": "StatefulPartitionedCall/multilevel_roi_aligner_1/multilevel_crop_and_resize/strided_slice_52/stack_1", "op": "Const", "attr": {"value": {"tensor": {"dtype": "DT_INT32", "tensorShape": {"dim": [{"size": "3"}]}}}, "dtype": {"type": "DT_INT32"}}}, {"name": "StatefulPartitionedCall/multilevel_roi_aligner_1/multilevel_crop_and_resize/strided_slice_52/stack_2", "op": "Const", "attr": {"value": {"tensor": {"dtype": "DT_INT32", "tensorShape": {"dim": [{"size": "3"}]}}}, "dtype": {"type": "DT_INT32"}}}, {"name": "StatefulPartitionedCall/multilevel_roi_aligner_1/multilevel_crop_and_resize/strided_slice_53/stack", "op": "Const", "attr": {"value": {"tensor": {"dtype": "DT_INT32", "tensorShape": {"dim": [{"size": "3"}]}}}, "dtype": {"type": "DT_INT32"}}}, {"name": "StatefulPartitionedCall/multilevel_roi_aligner_1/multilevel_crop_and_resize/strided_slice_53/stack_1", "op": "Const", "attr": {"value": {"tensor": {"dtype": "DT_INT32", "tensorShape": {"dim": [{"size": "3"}]}}}, "dtype": {"type": "DT_INT32"}}}, {"name": "StatefulPartitionedCall/multilevel_roi_aligner_1/multilevel_crop_and_resize/strided_slice_53/stack_2", "op": "Const", "attr": {"dtype": {"type": "DT_INT32"}, "value": {"tensor": {"dtype": "DT_INT32", "tensorShape": {"dim": [{"size": "3"}]}}}}}, {"name": "StatefulPartitionedCall/multilevel_roi_aligner_1/multilevel_crop_and_resize/mul_21", "op": "Const", "attr": {"dtype": {"type": "DT_FLOAT"}, "value": {"tensor": {"dtype": "DT_FLOAT", "tensorShape": {}}}}}, {"name": "StatefulPartitionedCall/multilevel_roi_aligner_1/multilevel_crop_and_resize/strided_slice_56/stack", "op": "Const", "attr": {"dtype": {"type": "DT_INT32"}, "value": {"tensor": {"dtype": "DT_INT32", "tensorShape": {"dim": [{"size": "3"}]}}}}}, {"name": "StatefulPartitionedCall/multilevel_roi_aligner_1/multilevel_crop_and_resize/strided_slice_56/stack_1", "op": "Const", "attr": {"dtype": {"type": "DT_INT32"}, "value": {"tensor": {"dtype": "DT_INT32", "tensorShape": {"dim": [{"size": "3"}]}}}}}, {"name": "StatefulPartitionedCall/multilevel_roi_aligner_1/multilevel_crop_and_resize/strided_slice_56/stack_2", "op": "Const", "attr": {"value": {"tensor": {"dtype": "DT_INT32", "tensorShape": {"dim": [{"size": "3"}]}}}, "dtype": {"type": "DT_INT32"}}}, {"name": "StatefulPartitionedCall/multilevel_roi_aligner_1/multilevel_crop_and_resize/strided_slice_57/stack", "op": "Const", "attr": {"value": {"tensor": {"dtype": "DT_INT32", "tensorShape": {"dim": [{"size": "3"}]}}}, "dtype": {"type": "DT_INT32"}}}, {"name": "StatefulPartitionedCall/multilevel_roi_aligner_1/multilevel_crop_and_resize/strided_slice_57/stack_1", "op": "Const", "attr": {"value": {"tensor": {"dtype": "DT_INT32", "tensorShape": {"dim": [{"size": "3"}]}}}, "dtype": {"type": "DT_INT32"}}}, {"name": "StatefulPartitionedCall/multilevel_roi_aligner_1/multilevel_crop_and_resize/strided_slice_57/stack_2", "op": "Const", "attr": {"dtype": {"type": "DT_INT32"}, "value": {"tensor": {"dtype": "DT_INT32", "tensorShape": {"dim": [{"size": "3"}]}}}}}, {"name": "StatefulPartitionedCall/multilevel_roi_aligner_1/multilevel_crop_and_resize/mul_23", "op": "Const", "attr": {"value": {"tensor": {"dtype": "DT_FLOAT", "tensorShape": {}}}, "dtype": {"type": "DT_FLOAT"}}}, {"name": "StatefulPartitionedCall/multilevel_roi_aligner_1/multilevel_crop_and_resize/strided_slice_60/stack", "op": "Const", "attr": {"value": {"tensor": {"dtype": "DT_INT32", "tensorShape": {"dim": [{"size": "3"}]}}}, "dtype": {"type": "DT_INT32"}}}, {"name": "StatefulPartitionedCall/multilevel_roi_aligner_1/multilevel_crop_and_resize/strided_slice_60/stack_1", "op": "Const", "attr": {"value": {"tensor": {"dtype": "DT_INT32", "tensorShape": {"dim": [{"size": "3"}]}}}, "dtype": {"type": "DT_INT32"}}}, {"name": "StatefulPartitionedCall/multilevel_roi_aligner_1/multilevel_crop_and_resize/strided_slice_60/stack_2", "op": "Const", "attr": {"dtype": {"type": "DT_INT32"}, "value": {"tensor": {"dtype": "DT_INT32", "tensorShape": {"dim": [{"size": "3"}]}}}}}, {"name": "StatefulPartitionedCall/multilevel_roi_aligner_1/multilevel_crop_and_resize/strided_slice_61/stack", "op": "Const", "attr": {"dtype": {"type": "DT_INT32"}, "value": {"tensor": {"dtype": "DT_INT32", "tensorShape": {"dim": [{"size": "3"}]}}}}}, {"name": "StatefulPartitionedCall/multilevel_roi_aligner_1/multilevel_crop_and_resize/strided_slice_61/stack_1", "op": "Const", "attr": {"dtype": {"type": "DT_INT32"}, "value": {"tensor": {"dtype": "DT_INT32", "tensorShape": {"dim": [{"size": "3"}]}}}}}, {"name": "StatefulPartitionedCall/multilevel_roi_aligner_1/multilevel_crop_and_resize/strided_slice_61/stack_2", "op": "Const", "attr": {"dtype": {"type": "DT_INT32"}, "value": {"tensor": {"dtype": "DT_INT32", "tensorShape": {"dim": [{"size": "3"}]}}}}}, {"name": "StatefulPartitionedCall/multilevel_roi_aligner_1/multilevel_crop_and_resize/mul_25", "op": "Const", "attr": {"dtype": {"type": "DT_FLOAT"}, "value": {"tensor": {"dtype": "DT_FLOAT", "tensorShape": {}}}}}, {"name": "StatefulPartitionedCall/multilevel_roi_aligner_1/multilevel_crop_and_resize/strided_slice_64/stack", "op": "Const", "attr": {"dtype": {"type": "DT_INT32"}, "value": {"tensor": {"dtype": "DT_INT32", "tensorShape": {"dim": [{"size": "3"}]}}}}}, {"name": "StatefulPartitionedCall/multilevel_roi_aligner_1/multilevel_crop_and_resize/strided_slice_64/stack_1", "op": "Const", "attr": {"dtype": {"type": "DT_INT32"}, "value": {"tensor": {"dtype": "DT_INT32", "tensorShape": {"dim": [{"size": "3"}]}}}}}, {"name": "StatefulPartitionedCall/multilevel_roi_aligner_1/multilevel_crop_and_resize/strided_slice_64/stack_2", "op": "Const", "attr": {"dtype": {"type": "DT_INT32"}, "value": {"tensor": {"dtype": "DT_INT32", "tensorShape": {"dim": [{"size": "3"}]}}}}}, {"name": "StatefulPartitionedCall/multilevel_roi_aligner_1/multilevel_crop_and_resize/ExpandDims/dim", "op": "Const", "attr": {"value": {"tensor": {"dtype": "DT_INT32", "tensorShape": {}}}, "dtype": {"type": "DT_INT32"}}}, {"name": "StatefulPartitionedCall/multilevel_roi_aligner_1/multilevel_crop_and_resize/strided_slice_9/stack", "op": "Const", "attr": {"value": {"tensor": {"dtype": "DT_INT32", "tensorShape": {"dim": [{"size": "3"}]}}}, "dtype": {"type": "DT_INT32"}}}, {"name": "StatefulPartitionedCall/multilevel_roi_aligner_1/multilevel_crop_and_resize/strided_slice_9/stack_1", "op": "Const", "attr": {"dtype": {"type": "DT_INT32"}, "value": {"tensor": {"dtype": "DT_INT32", "tensorShape": {"dim": [{"size": "3"}]}}}}}, {"name": "StatefulPartitionedCall/multilevel_roi_aligner_1/multilevel_crop_and_resize/strided_slice_9/stack_2", "op": "Const", "attr": {"dtype": {"type": "DT_INT32"}, "value": {"tensor": {"dtype": "DT_INT32", "tensorShape": {"dim": [{"size": "3"}]}}}}}, {"name": "StatefulPartitionedCall/multilevel_roi_aligner_1/multilevel_crop_and_resize/ExpandDims_1/dim", "op": "Const", "attr": {"value": {"tensor": {"dtype": "DT_INT32", "tensorShape": {}}}, "dtype": {"type": "DT_INT32"}}}, {"name": "StatefulPartitionedCall/multilevel_roi_aligner_1/multilevel_crop_and_resize/Const_2", "op": "Const", "attr": {"dtype": {"type": "DT_FLOAT"}, "value": {"tensor": {"dtype": "DT_FLOAT", "tensorShape": {}}}}}, {"name": "StatefulPartitionedCall/multilevel_roi_aligner_1/multilevel_crop_and_resize/ExpandDims_2/dim", "op": "Const", "attr": {"value": {"tensor": {"dtype": "DT_INT32", "tensorShape": {}}}, "dtype": {"type": "DT_INT32"}}}, {"name": "StatefulPartitionedCall/multilevel_roi_aligner_1/multilevel_crop_and_resize/concat_1/axis", "op": "Const", "attr": {"value": {"tensor": {"dtype": "DT_INT32", "tensorShape": {}}}, "dtype": {"type": "DT_INT32"}}}, {"name": "StatefulPartitionedCall/multilevel_roi_aligner_1/multilevel_crop_and_resize/strided_slice_65/stack", "op": "Const", "attr": {"dtype": {"type": "DT_INT32"}, "value": {"tensor": {"dtype": "DT_INT32", "tensorShape": {"dim": [{"size": "3"}]}}}}}, {"name": "StatefulPartitionedCall/multilevel_roi_aligner_1/multilevel_crop_and_resize/strided_slice_65/stack_1", "op": "Const", "attr": {"value": {"tensor": {"dtype": "DT_INT32", "tensorShape": {"dim": [{"size": "3"}]}}}, "dtype": {"type": "DT_INT32"}}}, {"name": "StatefulPartitionedCall/multilevel_roi_aligner_1/multilevel_crop_and_resize/strided_slice_65/stack_2", "op": "Const", "attr": {"value": {"tensor": {"dtype": "DT_INT32", "tensorShape": {"dim": [{"size": "3"}]}}}, "dtype": {"type": "DT_INT32"}}}, {"name": "StatefulPartitionedCall/multilevel_roi_aligner_1/multilevel_crop_and_resize/mul_27", "op": "Const", "attr": {"dtype": {"type": "DT_FLOAT"}, "value": {"tensor": {"dtype": "DT_FLOAT", "tensorShape": {}}}}}, {"name": "StatefulPartitionedCall/multilevel_roi_aligner_1/multilevel_crop_and_resize/truediv_3/x", "op": "Const", "attr": {"value": {"tensor": {"dtype": "DT_FLOAT", "tensorShape": {"dim": [{"size": "1"}, {"size": "1"}]}}}, "dtype": {"type": "DT_FLOAT"}}}, {"name": "StatefulPartitionedCall/multilevel_roi_aligner_1/multilevel_crop_and_resize/sub_3/y", "op": "Const", "attr": {"value": {"tensor": {"dtype": "DT_FLOAT", "tensorShape": {}}}, "dtype": {"type": "DT_FLOAT"}}}, {"name": "StatefulPartitionedCall/multilevel_roi_aligner_1/multilevel_crop_and_resize/ExpandDims_3/dim", "op": "Const", "attr": {"value": {"tensor": {"dtype": "DT_INT32", "tensorShape": {}}}, "dtype": {"type": "DT_INT32"}}}, {"name": "StatefulPartitionedCall/multilevel_roi_aligner_1/multilevel_crop_and_resize/truediv_4/x", "op": "Const", "attr": {"dtype": {"type": "DT_FLOAT"}, "value": {"tensor": {"dtype": "DT_FLOAT", "tensorShape": {"dim": [{"size": "1"}, {"size": "1"}]}}}}}, {"name": "StatefulPartitionedCall/multilevel_roi_aligner_1/multilevel_crop_and_resize/Pow_1/x", "op": "Const", "attr": {"value": {"tensor": {"dtype": "DT_FLOAT", "tensorShape": {"dim": [{"size": "1"}, {"size": "1"}]}}}, "dtype": {"type": "DT_FLOAT"}}}, {"name": "StatefulPartitionedCall/multilevel_roi_aligner_1/multilevel_crop_and_resize/Minimum/x", "op": "Const", "attr": {"dtype": {"type": "DT_INT32"}, "value": {"tensor": {"dtype": "DT_INT32", "tensorShape": {}}}}}, {"name": "StatefulPartitionedCall/multilevel_roi_aligner_1/multilevel_crop_and_resize/strided_slice_7/stack", "op": "Const", "attr": {"dtype": {"type": "DT_INT32"}, "value": {"tensor": {"dtype": "DT_INT32", "tensorShape": {"dim": [{"size": "3"}]}}}}}, {"name": "StatefulPartitionedCall/multilevel_roi_aligner_1/multilevel_crop_and_resize/strided_slice_7/stack_1", "op": "Const", "attr": {"value": {"tensor": {"dtype": "DT_INT32", "tensorShape": {"dim": [{"size": "3"}]}}}, "dtype": {"type": "DT_INT32"}}}, {"name": "StatefulPartitionedCall/multilevel_roi_aligner_1/multilevel_crop_and_resize/strided_slice_7/stack_2", "op": "Const", "attr": {"value": {"tensor": {"dtype": "DT_INT32", "tensorShape": {"dim": [{"size": "3"}]}}}, "dtype": {"type": "DT_INT32"}}}, {"name": "StatefulPartitionedCall/multilevel_roi_aligner_1/multilevel_crop_and_resize/strided_slice_8/stack", "op": "Const", "attr": {"dtype": {"type": "DT_INT32"}, "value": {"tensor": {"dtype": "DT_INT32", "tensorShape": {"dim": [{"size": "3"}]}}}}}, {"name": "StatefulPartitionedCall/multilevel_roi_aligner_1/multilevel_crop_and_resize/strided_slice_8/stack_1", "op": "Const", "attr": {"dtype": {"type": "DT_INT32"}, "value": {"tensor": {"dtype": "DT_INT32", "tensorShape": {"dim": [{"size": "3"}]}}}}}, {"name": "StatefulPartitionedCall/multilevel_roi_aligner_1/multilevel_crop_and_resize/strided_slice_8/stack_2", "op": "Const", "attr": {"value": {"tensor": {"dtype": "DT_INT32", "tensorShape": {"dim": [{"size": "3"}]}}}, "dtype": {"type": "DT_INT32"}}}, {"name": "StatefulPartitionedCall/multilevel_roi_aligner_1/multilevel_crop_and_resize/strided_slice_5/stack", "op": "Const", "attr": {"value": {"tensor": {"dtype": "DT_INT32", "tensorShape": {"dim": [{"size": "3"}]}}}, "dtype": {"type": "DT_INT32"}}}, {"name": "StatefulPartitionedCall/multilevel_roi_aligner_1/multilevel_crop_and_resize/strided_slice_5/stack_1", "op": "Const", "attr": {"value": {"tensor": {"dtype": "DT_INT32", "tensorShape": {"dim": [{"size": "3"}]}}}, "dtype": {"type": "DT_INT32"}}}, {"name": "StatefulPartitionedCall/multilevel_roi_aligner_1/multilevel_crop_and_resize/strided_slice_5/stack_2", "op": "Const", "attr": {"dtype": {"type": "DT_INT32"}, "value": {"tensor": {"dtype": "DT_INT32", "tensorShape": {"dim": [{"size": "3"}]}}}}}, {"name": "StatefulPartitionedCall/generate_detections/Reshape_5/shape", "op": "Const", "attr": {"dtype": {"type": "DT_INT32"}, "value": {"tensor": {"dtype": "DT_INT32", "tensorShape": {"dim": [{"size": "2"}]}}}}}, {"name": "StatefulPartitionedCall/generate_detections/GatherV2_1/axis", "op": "Const", "attr": {"value": {"tensor": {"dtype": "DT_INT32", "tensorShape": {}}}, "dtype": {"type": "DT_INT32"}}}, {"name": "StatefulPartitionedCall/generate_detections/Reshape_6/shape", "op": "Const", "attr": {"value": {"tensor": {"dtype": "DT_INT32", "tensorShape": {"dim": [{"size": "3"}]}}}, "dtype": {"type": "DT_INT32"}}}, {"name": "StatefulPartitionedCall/generate_detections/Reshape_7", "op": "Const", "attr": {"dtype": {"type": "DT_INT32"}, "value": {"tensor": {"dtype": "DT_INT32", "tensorShape": {"dim": [{"size": "1"}, {"size": "100"}, {"size": "1"}]}}}}}, {"name": "StatefulPartitionedCall/generate_detections/Reshape_8/shape", "op": "Const", "attr": {"dtype": {"type": "DT_INT32"}, "value": {"tensor": {"dtype": "DT_INT32", "tensorShape": {"dim": [{"size": "3"}]}}}}}, {"name": "StatefulPartitionedCall/generate_detections/Reshape_15/shape", "op": "Const", "attr": {"dtype": {"type": "DT_INT32"}, "value": {"tensor": {"dtype": "DT_INT32", "tensorShape": {"dim": [{"size": "2"}]}}}}}, {"name": "StatefulPartitionedCall/generate_detections/GatherV2_4/axis", "op": "Const", "attr": {"value": {"tensor": {"dtype": "DT_INT32", "tensorShape": {}}}, "dtype": {"type": "DT_INT32"}}}, {"name": "StatefulPartitionedCall/generate_detections/Reshape_16/shape", "op": "Const", "attr": {"dtype": {"type": "DT_INT32"}, "value": {"tensor": {"dtype": "DT_INT32", "tensorShape": {"dim": [{"size": "3"}]}}}}}, {"name": "StatefulPartitionedCall/generate_detections/Reshape_17", "op": "Const", "attr": {"dtype": {"type": "DT_INT32"}, "value": {"tensor": {"dtype": "DT_INT32", "tensorShape": {"dim": [{"size": "1"}, {"size": "100"}, {"size": "1"}]}}}}}, {"name": "StatefulPartitionedCall/generate_detections/Reshape_18/shape", "op": "Const", "attr": {"value": {"tensor": {"dtype": "DT_INT32", "tensorShape": {"dim": [{"size": "3"}]}}}, "dtype": {"type": "DT_INT32"}}}, {"name": "StatefulPartitionedCall/generate_detections/Reshape_25/shape", "op": "Const", "attr": {"dtype": {"type": "DT_INT32"}, "value": {"tensor": {"dtype": "DT_INT32", "tensorShape": {"dim": [{"size": "2"}]}}}}}, {"name": "StatefulPartitionedCall/generate_detections/GatherV2_7/axis", "op": "Const", "attr": {"dtype": {"type": "DT_INT32"}, "value": {"tensor": {"dtype": "DT_INT32", "tensorShape": {}}}}}, {"name": "StatefulPartitionedCall/generate_detections/Reshape_26/shape", "op": "Const", "attr": {"dtype": {"type": "DT_INT32"}, "value": {"tensor": {"dtype": "DT_INT32", "tensorShape": {"dim": [{"size": "3"}]}}}}}, {"name": "StatefulPartitionedCall/generate_detections/Reshape_27", "op": "Const", "attr": {"dtype": {"type": "DT_INT32"}, "value": {"tensor": {"dtype": "DT_INT32", "tensorShape": {"dim": [{"size": "1"}, {"size": "100"}, {"size": "1"}]}}}}}, {"name": "StatefulPartitionedCall/generate_detections/Reshape_28/shape", "op": "Const", "attr": {"value": {"tensor": {"dtype": "DT_INT32", "tensorShape": {"dim": [{"size": "3"}]}}}, "dtype": {"type": "DT_INT32"}}}, {"name": "StatefulPartitionedCall/generate_detections/Reshape_35/shape", "op": "Const", "attr": {"value": {"tensor": {"dtype": "DT_INT32", "tensorShape": {"dim": [{"size": "2"}]}}}, "dtype": {"type": "DT_INT32"}}}, {"name": "StatefulPartitionedCall/generate_detections/GatherV2_10/axis", "op": "Const", "attr": {"value": {"tensor": {"dtype": "DT_INT32", "tensorShape": {}}}, "dtype": {"type": "DT_INT32"}}}, {"name": "StatefulPartitionedCall/generate_detections/Reshape_36/shape", "op": "Const", "attr": {"value": {"tensor": {"dtype": "DT_INT32", "tensorShape": {"dim": [{"size": "3"}]}}}, "dtype": {"type": "DT_INT32"}}}, {"name": "StatefulPartitionedCall/generate_detections/Reshape_37", "op": "Const", "attr": {"value": {"tensor": {"dtype": "DT_INT32", "tensorShape": {"dim": [{"size": "1"}, {"size": "100"}, {"size": "1"}]}}}, "dtype": {"type": "DT_INT32"}}}, {"name": "StatefulPartitionedCall/generate_detections/Reshape_38/shape", "op": "Const", "attr": {"dtype": {"type": "DT_INT32"}, "value": {"tensor": {"dtype": "DT_INT32", "tensorShape": {"dim": [{"size": "3"}]}}}}}, {"name": "StatefulPartitionedCall/generate_detections/Reshape_45/shape", "op": "Const", "attr": {"value": {"tensor": {"dtype": "DT_INT32", "tensorShape": {"dim": [{"size": "2"}]}}}, "dtype": {"type": "DT_INT32"}}}, {"name": "StatefulPartitionedCall/generate_detections/GatherV2_13/axis", "op": "Const", "attr": {"value": {"tensor": {"dtype": "DT_INT32", "tensorShape": {}}}, "dtype": {"type": "DT_INT32"}}}, {"name": "StatefulPartitionedCall/generate_detections/Reshape_46/shape", "op": "Const", "attr": {"value": {"tensor": {"dtype": "DT_INT32", "tensorShape": {"dim": [{"size": "3"}]}}}, "dtype": {"type": "DT_INT32"}}}, {"name": "StatefulPartitionedCall/generate_detections/Reshape_47", "op": "Const", "attr": {"dtype": {"type": "DT_INT32"}, "value": {"tensor": {"dtype": "DT_INT32", "tensorShape": {"dim": [{"size": "1"}, {"size": "100"}, {"size": "1"}]}}}}}, {"name": "StatefulPartitionedCall/generate_detections/Reshape_48/shape", "op": "Const", "attr": {"dtype": {"type": "DT_INT32"}, "value": {"tensor": {"dtype": "DT_INT32", "tensorShape": {"dim": [{"size": "3"}]}}}}}, {"name": "StatefulPartitionedCall/generate_detections/Reshape_55/shape", "op": "Const", "attr": {"dtype": {"type": "DT_INT32"}, "value": {"tensor": {"dtype": "DT_INT32", "tensorShape": {"dim": [{"size": "2"}]}}}}}, {"name": "StatefulPartitionedCall/generate_detections/GatherV2_16/axis", "op": "Const", "attr": {"value": {"tensor": {"dtype": "DT_INT32", "tensorShape": {}}}, "dtype": {"type": "DT_INT32"}}}, {"name": "StatefulPartitionedCall/generate_detections/Reshape_56/shape", "op": "Const", "attr": {"value": {"tensor": {"dtype": "DT_INT32", "tensorShape": {"dim": [{"size": "3"}]}}}, "dtype": {"type": "DT_INT32"}}}, {"name": "StatefulPartitionedCall/generate_detections/Reshape_57", "op": "Const", "attr": {"value": {"tensor": {"dtype": "DT_INT32", "tensorShape": {"dim": [{"size": "1"}, {"size": "100"}, {"size": "1"}]}}}, "dtype": {"type": "DT_INT32"}}}, {"name": "StatefulPartitionedCall/generate_detections/Reshape_58/shape", "op": "Const", "attr": {"dtype": {"type": "DT_INT32"}, "value": {"tensor": {"dtype": "DT_INT32", "tensorShape": {"dim": [{"size": "3"}]}}}}}, {"name": "StatefulPartitionedCall/generate_detections/Reshape_65/shape", "op": "Const", "attr": {"value": {"tensor": {"dtype": "DT_INT32", "tensorShape": {"dim": [{"size": "2"}]}}}, "dtype": {"type": "DT_INT32"}}}, {"name": "StatefulPartitionedCall/generate_detections/GatherV2_19/axis", "op": "Const", "attr": {"dtype": {"type": "DT_INT32"}, "value": {"tensor": {"dtype": "DT_INT32", "tensorShape": {}}}}}, {"name": "StatefulPartitionedCall/generate_detections/Reshape_66/shape", "op": "Const", "attr": {"dtype": {"type": "DT_INT32"}, "value": {"tensor": {"dtype": "DT_INT32", "tensorShape": {"dim": [{"size": "3"}]}}}}}, {"name": "StatefulPartitionedCall/generate_detections/Reshape_67", "op": "Const", "attr": {"dtype": {"type": "DT_INT32"}, "value": {"tensor": {"dtype": "DT_INT32", "tensorShape": {"dim": [{"size": "1"}, {"size": "100"}, {"size": "1"}]}}}}}, {"name": "StatefulPartitionedCall/generate_detections/Reshape_68/shape", "op": "Const", "attr": {"value": {"tensor": {"dtype": "DT_INT32", "tensorShape": {"dim": [{"size": "3"}]}}}, "dtype": {"type": "DT_INT32"}}}, {"name": "StatefulPartitionedCall/generate_detections/Reshape_75/shape", "op": "Const", "attr": {"dtype": {"type": "DT_INT32"}, "value": {"tensor": {"dtype": "DT_INT32", "tensorShape": {"dim": [{"size": "2"}]}}}}}, {"name": "StatefulPartitionedCall/generate_detections/GatherV2_22/axis", "op": "Const", "attr": {"dtype": {"type": "DT_INT32"}, "value": {"tensor": {"dtype": "DT_INT32", "tensorShape": {}}}}}, {"name": "StatefulPartitionedCall/generate_detections/Reshape_76/shape", "op": "Const", "attr": {"dtype": {"type": "DT_INT32"}, "value": {"tensor": {"dtype": "DT_INT32", "tensorShape": {"dim": [{"size": "3"}]}}}}}, {"name": "StatefulPartitionedCall/generate_detections/Reshape_77", "op": "Const", "attr": {"value": {"tensor": {"dtype": "DT_INT32", "tensorShape": {"dim": [{"size": "1"}, {"size": "100"}, {"size": "1"}]}}}, "dtype": {"type": "DT_INT32"}}}, {"name": "StatefulPartitionedCall/generate_detections/Reshape_78/shape", "op": "Const", "attr": {"value": {"tensor": {"dtype": "DT_INT32", "tensorShape": {"dim": [{"size": "3"}]}}}, "dtype": {"type": "DT_INT32"}}}, {"name": "StatefulPartitionedCall/generate_detections/Reshape_85/shape", "op": "Const", "attr": {"value": {"tensor": {"dtype": "DT_INT32", "tensorShape": {"dim": [{"size": "2"}]}}}, "dtype": {"type": "DT_INT32"}}}, {"name": "StatefulPartitionedCall/generate_detections/GatherV2_25/axis", "op": "Const", "attr": {"value": {"tensor": {"dtype": "DT_INT32", "tensorShape": {}}}, "dtype": {"type": "DT_INT32"}}}, {"name": "StatefulPartitionedCall/generate_detections/Reshape_86/shape", "op": "Const", "attr": {"value": {"tensor": {"dtype": "DT_INT32", "tensorShape": {"dim": [{"size": "3"}]}}}, "dtype": {"type": "DT_INT32"}}}, {"name": "StatefulPartitionedCall/generate_detections/Reshape_87", "op": "Const", "attr": {"dtype": {"type": "DT_INT32"}, "value": {"tensor": {"dtype": "DT_INT32", "tensorShape": {"dim": [{"size": "1"}, {"size": "100"}, {"size": "1"}]}}}}}, {"name": "StatefulPartitionedCall/generate_detections/Reshape_88/shape", "op": "Const", "attr": {"value": {"tensor": {"dtype": "DT_INT32", "tensorShape": {"dim": [{"size": "3"}]}}}, "dtype": {"type": "DT_INT32"}}}, {"name": "StatefulPartitionedCall/generate_detections/Reshape_95/shape", "op": "Const", "attr": {"dtype": {"type": "DT_INT32"}, "value": {"tensor": {"dtype": "DT_INT32", "tensorShape": {"dim": [{"size": "2"}]}}}}}, {"name": "StatefulPartitionedCall/generate_detections/GatherV2_28/axis", "op": "Const", "attr": {"value": {"tensor": {"dtype": "DT_INT32", "tensorShape": {}}}, "dtype": {"type": "DT_INT32"}}}, {"name": "StatefulPartitionedCall/generate_detections/Reshape_96/shape", "op": "Const", "attr": {"dtype": {"type": "DT_INT32"}, "value": {"tensor": {"dtype": "DT_INT32", "tensorShape": {"dim": [{"size": "3"}]}}}}}, {"name": "StatefulPartitionedCall/generate_detections/Reshape_97", "op": "Const", "attr": {"dtype": {"type": "DT_INT32"}, "value": {"tensor": {"dtype": "DT_INT32", "tensorShape": {"dim": [{"size": "1"}, {"size": "100"}, {"size": "1"}]}}}}}, {"name": "StatefulPartitionedCall/generate_detections/Reshape_98/shape", "op": "Const", "attr": {"dtype": {"type": "DT_INT32"}, "value": {"tensor": {"dtype": "DT_INT32", "tensorShape": {"dim": [{"size": "3"}]}}}}}, {"name": "StatefulPartitionedCall/concat_15/axis", "op": "Const", "attr": {"dtype": {"type": "DT_INT32"}, "value": {"tensor": {"dtype": "DT_INT32", "tensorShape": {}}}}}, {"name": "StatefulPartitionedCall/GatherV2/axis", "op": "Const", "attr": {"value": {"tensor": {"dtype": "DT_INT32", "tensorShape": {}}}, "dtype": {"type": "DT_INT32"}}}, {"name": "StatefulPartitionedCall/multilevel_roi_aligner_1/multilevel_crop_and_resize/strided_slice_6/stack", "op": "Const", "attr": {"dtype": {"type": "DT_INT32"}, "value": {"tensor": {"dtype": "DT_INT32", "tensorShape": {"dim": [{"size": "3"}]}}}}}, {"name": "StatefulPartitionedCall/multilevel_roi_aligner_1/multilevel_crop_and_resize/strided_slice_6/stack_1", "op": "Const", "attr": {"dtype": {"type": "DT_INT32"}, "value": {"tensor": {"dtype": "DT_INT32", "tensorShape": {"dim": [{"size": "3"}]}}}}}, {"name": "StatefulPartitionedCall/multilevel_roi_aligner_1/multilevel_crop_and_resize/strided_slice_6/stack_2", "op": "Const", "attr": {"value": {"tensor": {"dtype": "DT_INT32", "tensorShape": {"dim": [{"size": "3"}]}}}, "dtype": {"type": "DT_INT32"}}}, {"name": "StatefulPartitionedCall/multilevel_roi_aligner_1/multilevel_crop_and_resize/div_no_nan/y", "op": "Const", "attr": {"value": {"tensor": {"dtype": "DT_FLOAT", "tensorShape": {}}}, "dtype": {"type": "DT_FLOAT"}}}, {"name": "StatefulPartitionedCall/multilevel_roi_aligner_1/multilevel_crop_and_resize/Log_1", "op": "Const", "attr": {"value": {"tensor": {"dtype": "DT_FLOAT", "tensorShape": {}}}, "dtype": {"type": "DT_FLOAT"}}}, {"name": "StatefulPartitionedCall/multilevel_roi_aligner_1/multilevel_crop_and_resize/add/y", "op": "Const", "attr": {"dtype": {"type": "DT_FLOAT"}, "value": {"tensor": {"dtype": "DT_FLOAT", "tensorShape": {}}}}}, {"name": "StatefulPartitionedCall/multilevel_roi_aligner_1/multilevel_crop_and_resize/Maximum/y", "op": "Const", "attr": {"dtype": {"type": "DT_INT32"}, "value": {"tensor": {"dtype": "DT_INT32", "tensorShape": {}}}}}, {"name": "StatefulPartitionedCall/multilevel_roi_aligner_1/multilevel_crop_and_resize/sub_2/y", "op": "Const", "attr": {"value": {"tensor": {"dtype": "DT_INT32", "tensorShape": {}}}, "dtype": {"type": "DT_INT32"}}}, {"name": "StatefulPartitionedCall/multilevel_roi_aligner_1/multilevel_crop_and_resize/sub_4/y", "op": "Const", "attr": {"value": {"tensor": {"dtype": "DT_FLOAT", "tensorShape": {}}}, "dtype": {"type": "DT_FLOAT"}}}, {"name": "StatefulPartitionedCall/multilevel_roi_aligner_1/multilevel_crop_and_resize/ExpandDims_4/dim", "op": "Const", "attr": {"value": {"tensor": {"dtype": "DT_INT32", "tensorShape": {}}}, "dtype": {"type": "DT_INT32"}}}, {"name": "StatefulPartitionedCall/multilevel_roi_aligner_1/multilevel_crop_and_resize/concat_2/axis", "op": "Const", "attr": {"dtype": {"type": "DT_INT32"}, "value": {"tensor": {"dtype": "DT_INT32", "tensorShape": {}}}}}, {"name": "StatefulPartitionedCall/multilevel_roi_aligner_1/multilevel_crop_and_resize/strided_slice_68/stack", "op": "Const", "attr": {"dtype": {"type": "DT_INT32"}, "value": {"tensor": {"dtype": "DT_INT32", "tensorShape": {"dim": [{"size": "3"}]}}}}}, {"name": "StatefulPartitionedCall/multilevel_roi_aligner_1/multilevel_crop_and_resize/strided_slice_68/stack_1", "op": "Const", "attr": {"dtype": {"type": "DT_INT32"}, "value": {"tensor": {"dtype": "DT_INT32", "tensorShape": {"dim": [{"size": "3"}]}}}}}, {"name": "StatefulPartitionedCall/multilevel_roi_aligner_1/multilevel_crop_and_resize/strided_slice_68/stack_2", "op": "Const", "attr": {"dtype": {"type": "DT_INT32"}, "value": {"tensor": {"dtype": "DT_INT32", "tensorShape": {"dim": [{"size": "3"}]}}}}}, {"name": "StatefulPartitionedCall/multilevel_roi_aligner_1/multilevel_crop_and_resize/ExpandDims_5/dim", "op": "Const", "attr": {"dtype": {"type": "DT_INT32"}, "value": {"tensor": {"dtype": "DT_INT32", "tensorShape": {}}}}}, {"name": "StatefulPartitionedCall/multilevel_roi_aligner_1/multilevel_crop_and_resize/Reshape_17/shape", "op": "Const", "attr": {"dtype": {"type": "DT_INT32"}, "value": {"tensor": {"dtype": "DT_INT32", "tensorShape": {"dim": [{"size": "4"}]}}}}}, {"name": "StatefulPartitionedCall/multilevel_roi_aligner_1/multilevel_crop_and_resize/ExpandDims_10/dim", "op": "Const", "attr": {"dtype": {"type": "DT_INT32"}, "value": {"tensor": {"dtype": "DT_INT32", "tensorShape": {}}}}}, {"name": "StatefulPartitionedCall/multilevel_roi_aligner_1/multilevel_crop_and_resize/Reshape_18/shape", "op": "Const", "attr": {"value": {"tensor": {"dtype": "DT_INT32", "tensorShape": {"dim": [{"size": "4"}]}}}, "dtype": {"type": "DT_INT32"}}}, {"name": "StatefulPartitionedCall/mask_head/mask-upsampling/BiasAdd/ReadVariableOp", "op": "Const", "attr": {"value": {"tensor": {"dtype": "DT_FLOAT", "tensorShape": {"dim": [{"size": "256"}]}}}, "dtype": {"type": "DT_FLOAT"}}}, {"name": "StatefulPartitionedCall/mask_head/mask-logits/Conv2D/ReadVariableOp", "op": "Const", "attr": {"dtype": {"type": "DT_FLOAT"}, "value": {"tensor": {"dtype": "DT_FLOAT", "tensorShape": {"dim": [{"size": "1"}, {"size": "1"}, {"size": "256"}, {"size": "11"}]}}}}}, {"name": "StatefulPartitionedCall/mask_head/mask-logits/BiasAdd/ReadVariableOp", "op": "Const", "attr": {"value": {"tensor": {"dtype": "DT_FLOAT", "tensorShape": {"dim": [{"size": "11"}]}}}, "dtype": {"type": "DT_FLOAT"}}}, {"name": "StatefulPartitionedCall/mask_head/Reshape_1/shape", "op": "Const", "attr": {"value": {"tensor": {"dtype": "DT_INT32", "tensorShape": {"dim": [{"size": "5"}]}}}, "dtype": {"type": "DT_INT32"}}}, {"name": "StatefulPartitionedCall/mask_head/transpose/perm", "op": "Const", "attr": {"value": {"tensor": {"dtype": "DT_INT32", "tensorShape": {"dim": [{"size": "5"}]}}}, "dtype": {"type": "DT_INT32"}}}, {"name": "StatefulPartitionedCall/mask_head/Tile", "op": "Const", "attr": {"value": {"tensor": {"dtype": "DT_INT32", "tensorShape": {"dim": [{"size": "1"}, {"size": "100"}]}}}, "dtype": {"type": "DT_INT32"}}}, {"name": "StatefulPartitionedCall/mask_head/Tile_1", "op": "Const", "attr": {"value": {"tensor": {"dtype": "DT_INT32", "tensorShape": {"dim": [{"size": "1"}, {"size": "100"}]}}}, "dtype": {"type": "DT_INT32"}}}, {"name": "StatefulPartitionedCall/concat_17", "op": "Const", "attr": {"dtype": {"type": "DT_INT32"}, "value": {"tensor": {"dtype": "DT_INT32", "tensorShape": {"dim": [{"size": "1"}, {"size": "1000"}]}}}}}, {"name": "StatefulPartitionedCall/GatherV2_1/axis", "op": "Const", "attr": {"value": {"tensor": {"dtype": "DT_INT32", "tensorShape": {}}}, "dtype": {"type": "DT_INT32"}}}, {"name": "StatefulPartitionedCall/add_10/y", "op": "Const", "attr": {"value": {"tensor": {"dtype": "DT_INT32", "tensorShape": {}}}, "dtype": {"type": "DT_INT32"}}}, {"name": "Identity_4", "op": "Const", "attr": {"dtype": {"type": "DT_FLOAT"}, "value": {"tensor": {"dtype": "DT_FLOAT", "tensorShape": {"dim": [{"size": "1"}, {"size": "4"}, {"size": "2"}]}}}}}, {"name": "StatefulPartitionedCall/generate_detections/filter_boxes_by_scores/Neg", "op": "Const", "attr": {"dtype": {"type": "DT_FLOAT"}, "value": {"tensor": {"dtype": "DT_FLOAT", "tensorShape": {"dim": [{"size": "1"}, {"size": "1000"}]}}}}}, {"name": "StatefulPartitionedCall/generate_detections/PadV2/paddings", "op": "Const", "attr": {"dtype": {"type": "DT_INT32"}, "value": {"tensor": {"dtype": "DT_INT32", "tensorShape": {"dim": [{"size": "2"}, {"size": "2"}]}}}}}, {"name": "StatefulPartitionedCall/generate_detections/PadV2/constant_values", "op": "Const", "attr": {"value": {"tensor": {"dtype": "DT_FLOAT", "tensorShape": {}}}, "dtype": {"type": "DT_FLOAT"}}}, {"name": "StatefulPartitionedCall/generate_detections/Reshape_9/shape", "op": "Const", "attr": {"dtype": {"type": "DT_INT32"}, "value": {"tensor": {"dtype": "DT_INT32", "tensorShape": {"dim": [{"size": "2"}]}}}}}, {"name": "StatefulPartitionedCall/generate_detections/Greater/y", "op": "Const", "attr": {"value": {"tensor": {"dtype": "DT_FLOAT", "tensorShape": {}}}, "dtype": {"type": "DT_FLOAT"}}}, {"name": "StatefulPartitionedCall/generate_detections/Any/reduction_indices", "op": "Const", "attr": {"dtype": {"type": "DT_INT32"}, "value": {"tensor": {"dtype": "DT_INT32", "tensorShape": {"dim": [{"size": "1"}]}}}}}, {"name": "StatefulPartitionedCall/generate_detections/ExpandDims", "op": "Const", "attr": {"dtype": {"type": "DT_INT32"}, "value": {"tensor": {"dtype": "DT_INT32", "tensorShape": {"dim": [{"size": "1"}, {"size": "1024"}]}}}}}, {"name": "StatefulPartitionedCall/generate_detections/TopKV2_1/k", "op": "Const", "attr": {"value": {"tensor": {"dtype": "DT_INT32", "tensorShape": {}}}, "dtype": {"type": "DT_INT32"}}}, {"name": "StatefulPartitionedCall/generate_detections/sub_2", "op": "Const", "attr": {"dtype": {"type": "DT_INT32"}, "value": {"tensor": {"dtype": "DT_INT32", "tensorShape": {}}}}}, {"name": "StatefulPartitionedCall/generate_detections/Reshape_4/shape", "op": "Const", "attr": {"dtype": {"type": "DT_INT32"}, "value": {"tensor": {"dtype": "DT_INT32", "tensorShape": {"dim": [{"size": "1"}]}}}}}, {"name": "StatefulPartitionedCall/generate_detections/GatherV2_2/axis", "op": "Const", "attr": {"value": {"tensor": {"dtype": "DT_INT32", "tensorShape": {}}}, "dtype": {"type": "DT_INT32"}}}, {"name": "StatefulPartitionedCall/generate_detections/Reshape_10/shape", "op": "Const", "attr": {"value": {"tensor": {"dtype": "DT_INT32", "tensorShape": {"dim": [{"size": "2"}]}}}, "dtype": {"type": "DT_INT32"}}}, {"name": "StatefulPartitionedCall/generate_detections/Reshape_11", "op": "Const", "attr": {"dtype": {"type": "DT_INT32"}, "value": {"tensor": {"dtype": "DT_INT32", "tensorShape": {"dim": [{"size": "1"}, {"size": "100"}]}}}}}, {"name": "StatefulPartitionedCall/generate_detections/zeros", "op": "Const", "attr": {"value": {"tensor": {"dtype": "DT_INT32", "tensorShape": {"dim": [{"size": "1"}]}}}, "dtype": {"type": "DT_INT32"}}}, {"name": "StatefulPartitionedCall/generate_detections/strided_slice_1/stack", "op": "Const", "attr": {"dtype": {"type": "DT_INT32"}, "value": {"tensor": {"dtype": "DT_INT32", "tensorShape": {"dim": [{"size": "3"}]}}}}}, {"name": "StatefulPartitionedCall/generate_detections/strided_slice_1/stack_1", "op": "Const", "attr": {"value": {"tensor": {"dtype": "DT_INT32", "tensorShape": {"dim": [{"size": "3"}]}}}, "dtype": {"type": "DT_INT32"}}}, {"name": "StatefulPartitionedCall/generate_detections/strided_slice_1/stack_2", "op": "Const", "attr": {"value": {"tensor": {"dtype": "DT_INT32", "tensorShape": {"dim": [{"size": "3"}]}}}, "dtype": {"type": "DT_INT32"}}}, {"name": "StatefulPartitionedCall/generate_detections/filter_boxes_by_scores/Greater/y", "op": "Const", "attr": {"dtype": {"type": "DT_FLOAT"}, "value": {"tensor": {"dtype": "DT_FLOAT", "tensorShape": {}}}}}, {"name": "StatefulPartitionedCall/generate_detections/filter_boxes_by_scores/ExpandDims/dim", "op": "Const", "attr": {"dtype": {"type": "DT_INT32"}, "value": {"tensor": {"dtype": "DT_INT32", "tensorShape": {}}}}}, {"name": "StatefulPartitionedCall/generate_detections/strided_slice/stack", "op": "Const", "attr": {"value": {"tensor": {"dtype": "DT_INT32", "tensorShape": {"dim": [{"size": "4"}]}}}, "dtype": {"type": "DT_INT32"}}}, {"name": "StatefulPartitionedCall/generate_detections/strided_slice/stack_1", "op": "Const", "attr": {"dtype": {"type": "DT_INT32"}, "value": {"tensor": {"dtype": "DT_INT32", "tensorShape": {"dim": [{"size": "4"}]}}}}}, {"name": "StatefulPartitionedCall/generate_detections/strided_slice/stack_2", "op": "Const", "attr": {"value": {"tensor": {"dtype": "DT_INT32", "tensorShape": {"dim": [{"size": "4"}]}}}, "dtype": {"type": "DT_INT32"}}}, {"name": "StatefulPartitionedCall/generate_detections/strided_slice_2/stack", "op": "Const", "attr": {"value": {"tensor": {"dtype": "DT_INT32", "tensorShape": {"dim": [{"size": "3"}]}}}, "dtype": {"type": "DT_INT32"}}}, {"name": "StatefulPartitionedCall/generate_detections/strided_slice_2/stack_1", "op": "Const", "attr": {"dtype": {"type": "DT_INT32"}, "value": {"tensor": {"dtype": "DT_INT32", "tensorShape": {"dim": [{"size": "3"}]}}}}}, {"name": "StatefulPartitionedCall/generate_detections/strided_slice_2/stack_2", "op": "Const", "attr": {"value": {"tensor": {"dtype": "DT_INT32", "tensorShape": {"dim": [{"size": "3"}]}}}, "dtype": {"type": "DT_INT32"}}}, {"name": "StatefulPartitionedCall/generate_detections/GatherV2/axis", "op": "Const", "attr": {"value": {"tensor": {"dtype": "DT_INT32", "tensorShape": {}}}, "dtype": {"type": "DT_INT32"}}}, {"name": "StatefulPartitionedCall/generate_detections/Pad/paddings", "op": "Const", "attr": {"dtype": {"type": "DT_INT32"}, "value": {"tensor": {"dtype": "DT_INT32", "tensorShape": {"dim": [{"size": "3"}, {"size": "2"}]}}}}}, {"name": "StatefulPartitionedCall/generate_detections/Const_1", "op": "Const", "attr": {"dtype": {"type": "DT_FLOAT"}, "value": {"tensor": {"dtype": "DT_FLOAT", "tensorShape": {}}}}}, {"name": "StatefulPartitionedCall/generate_detections/Const", "op": "Const", "attr": {"value": {"tensor": {"dtype": "DT_INT32", "tensorShape": {}}}, "dtype": {"type": "DT_INT32"}}}, {"name": "StatefulPartitionedCall/generate_detections/add", "op": "Const", "attr": {"value": {"tensor": {"dtype": "DT_INT32", "tensorShape": {}}}, "dtype": {"type": "DT_INT32"}}}, {"name": "StatefulPartitionedCall/generate_detections/while/loop_counter", "op": "Const", "attr": {"value": {"tensor": {"dtype": "DT_INT32", "tensorShape": {}}}, "dtype": {"type": "DT_INT32"}}}, {"name": "StatefulPartitionedCall/generate_detections/Reshape_12/shape", "op": "Const", "attr": {"dtype": {"type": "DT_INT32"}, "value": {"tensor": {"dtype": "DT_INT32", "tensorShape": {"dim": [{"size": "2"}]}}}}}, {"name": "StatefulPartitionedCall/generate_detections/filter_boxes_by_scores_1/Neg", "op": "Const", "attr": {"dtype": {"type": "DT_FLOAT"}, "value": {"tensor": {"dtype": "DT_FLOAT", "tensorShape": {"dim": [{"size": "1"}, {"size": "1000"}]}}}}}, {"name": "StatefulPartitionedCall/generate_detections/PadV2_1/paddings", "op": "Const", "attr": {"dtype": {"type": "DT_INT32"}, "value": {"tensor": {"dtype": "DT_INT32", "tensorShape": {"dim": [{"size": "2"}, {"size": "2"}]}}}}}, {"name": "StatefulPartitionedCall/generate_detections/PadV2_1/constant_values", "op": "Const", "attr": {"value": {"tensor": {"dtype": "DT_FLOAT", "tensorShape": {}}}, "dtype": {"type": "DT_FLOAT"}}}, {"name": "StatefulPartitionedCall/generate_detections/Reshape_19/shape", "op": "Const", "attr": {"dtype": {"type": "DT_INT32"}, "value": {"tensor": {"dtype": "DT_INT32", "tensorShape": {"dim": [{"size": "2"}]}}}}}, {"name": "StatefulPartitionedCall/generate_detections/Greater_1/y", "op": "Const", "attr": {"value": {"tensor": {"dtype": "DT_FLOAT", "tensorShape": {}}}, "dtype": {"type": "DT_FLOAT"}}}, {"name": "StatefulPartitionedCall/generate_detections/Any_1/reduction_indices", "op": "Const", "attr": {"value": {"tensor": {"dtype": "DT_INT32", "tensorShape": {"dim": [{"size": "1"}]}}}, "dtype": {"type": "DT_INT32"}}}, {"name": "StatefulPartitionedCall/generate_detections/ExpandDims_1", "op": "Const", "attr": {"value": {"tensor": {"dtype": "DT_INT32", "tensorShape": {"dim": [{"size": "1"}, {"size": "1024"}]}}}, "dtype": {"type": "DT_INT32"}}}, {"name": "StatefulPartitionedCall/generate_detections/TopKV2_2/k", "op": "Const", "attr": {"dtype": {"type": "DT_INT32"}, "value": {"tensor": {"dtype": "DT_INT32", "tensorShape": {}}}}}, {"name": "StatefulPartitionedCall/generate_detections/sub_5", "op": "Const", "attr": {"dtype": {"type": "DT_INT32"}, "value": {"tensor": {"dtype": "DT_INT32", "tensorShape": {}}}}}, {"name": "StatefulPartitionedCall/generate_detections/Reshape_14/shape", "op": "Const", "attr": {"dtype": {"type": "DT_INT32"}, "value": {"tensor": {"dtype": "DT_INT32", "tensorShape": {"dim": [{"size": "1"}]}}}}}, {"name": "StatefulPartitionedCall/generate_detections/GatherV2_5/axis", "op": "Const", "attr": {"value": {"tensor": {"dtype": "DT_INT32", "tensorShape": {}}}, "dtype": {"type": "DT_INT32"}}}, {"name": "StatefulPartitionedCall/generate_detections/Reshape_20/shape", "op": "Const", "attr": {"value": {"tensor": {"dtype": "DT_INT32", "tensorShape": {"dim": [{"size": "2"}]}}}, "dtype": {"type": "DT_INT32"}}}, {"name": "StatefulPartitionedCall/generate_detections/Reshape_21", "op": "Const", "attr": {"value": {"tensor": {"dtype": "DT_INT32", "tensorShape": {"dim": [{"size": "1"}, {"size": "100"}]}}}, "dtype": {"type": "DT_INT32"}}}, {"name": "StatefulPartitionedCall/generate_detections/zeros_1", "op": "Const", "attr": {"dtype": {"type": "DT_INT32"}, "value": {"tensor": {"dtype": "DT_INT32", "tensorShape": {"dim": [{"size": "1"}]}}}}}, {"name": "StatefulPartitionedCall/generate_detections/strided_slice_6/stack", "op": "Const", "attr": {"dtype": {"type": "DT_INT32"}, "value": {"tensor": {"dtype": "DT_INT32", "tensorShape": {"dim": [{"size": "3"}]}}}}}, {"name": "StatefulPartitionedCall/generate_detections/strided_slice_6/stack_1", "op": "Const", "attr": {"dtype": {"type": "DT_INT32"}, "value": {"tensor": {"dtype": "DT_INT32", "tensorShape": {"dim": [{"size": "3"}]}}}}}, {"name": "StatefulPartitionedCall/generate_detections/strided_slice_6/stack_2", "op": "Const", "attr": {"value": {"tensor": {"dtype": "DT_INT32", "tensorShape": {"dim": [{"size": "3"}]}}}, "dtype": {"type": "DT_INT32"}}}, {"name": "StatefulPartitionedCall/generate_detections/filter_boxes_by_scores_1/Greater/y", "op": "Const", "attr": {"value": {"tensor": {"dtype": "DT_FLOAT", "tensorShape": {}}}, "dtype": {"type": "DT_FLOAT"}}}, {"name": "StatefulPartitionedCall/generate_detections/filter_boxes_by_scores_1/ExpandDims/dim", "op": "Const", "attr": {"dtype": {"type": "DT_INT32"}, "value": {"tensor": {"dtype": "DT_INT32", "tensorShape": {}}}}}, {"name": "StatefulPartitionedCall/generate_detections/strided_slice_5/stack", "op": "Const", "attr": {"value": {"tensor": {"dtype": "DT_INT32", "tensorShape": {"dim": [{"size": "4"}]}}}, "dtype": {"type": "DT_INT32"}}}, {"name": "StatefulPartitionedCall/generate_detections/strided_slice_5/stack_1", "op": "Const", "attr": {"value": {"tensor": {"dtype": "DT_INT32", "tensorShape": {"dim": [{"size": "4"}]}}}, "dtype": {"type": "DT_INT32"}}}, {"name": "StatefulPartitionedCall/generate_detections/strided_slice_5/stack_2", "op": "Const", "attr": {"value": {"tensor": {"dtype": "DT_INT32", "tensorShape": {"dim": [{"size": "4"}]}}}, "dtype": {"type": "DT_INT32"}}}, {"name": "StatefulPartitionedCall/generate_detections/strided_slice_7/stack", "op": "Const", "attr": {"dtype": {"type": "DT_INT32"}, "value": {"tensor": {"dtype": "DT_INT32", "tensorShape": {"dim": [{"size": "3"}]}}}}}, {"name": "StatefulPartitionedCall/generate_detections/strided_slice_7/stack_1", "op": "Const", "attr": {"value": {"tensor": {"dtype": "DT_INT32", "tensorShape": {"dim": [{"size": "3"}]}}}, "dtype": {"type": "DT_INT32"}}}, {"name": "StatefulPartitionedCall/generate_detections/strided_slice_7/stack_2", "op": "Const", "attr": {"dtype": {"type": "DT_INT32"}, "value": {"tensor": {"dtype": "DT_INT32", "tensorShape": {"dim": [{"size": "3"}]}}}}}, {"name": "StatefulPartitionedCall/generate_detections/GatherV2_3/axis", "op": "Const", "attr": {"dtype": {"type": "DT_INT32"}, "value": {"tensor": {"dtype": "DT_INT32", "tensorShape": {}}}}}, {"name": "StatefulPartitionedCall/generate_detections/Pad_1/paddings", "op": "Const", "attr": {"value": {"tensor": {"dtype": "DT_INT32", "tensorShape": {"dim": [{"size": "3"}, {"size": "2"}]}}}, "dtype": {"type": "DT_INT32"}}}, {"name": "StatefulPartitionedCall/generate_detections/Const_3", "op": "Const", "attr": {"value": {"tensor": {"dtype": "DT_FLOAT", "tensorShape": {}}}, "dtype": {"type": "DT_FLOAT"}}}, {"name": "StatefulPartitionedCall/generate_detections/Const_2", "op": "Const", "attr": {"dtype": {"type": "DT_INT32"}, "value": {"tensor": {"dtype": "DT_INT32", "tensorShape": {}}}}}, {"name": "StatefulPartitionedCall/generate_detections/add_2", "op": "Const", "attr": {"dtype": {"type": "DT_INT32"}, "value": {"tensor": {"dtype": "DT_INT32", "tensorShape": {}}}}}, {"name": "StatefulPartitionedCall/generate_detections/while_1/loop_counter", "op": "Const", "attr": {"dtype": {"type": "DT_INT32"}, "value": {"tensor": {"dtype": "DT_INT32", "tensorShape": {}}}}}, {"name": "StatefulPartitionedCall/generate_detections/Reshape_22/shape", "op": "Const", "attr": {"value": {"tensor": {"dtype": "DT_INT32", "tensorShape": {"dim": [{"size": "2"}]}}}, "dtype": {"type": "DT_INT32"}}}, {"name": "StatefulPartitionedCall/generate_detections/filter_boxes_by_scores_2/Neg", "op": "Const", "attr": {"value": {"tensor": {"dtype": "DT_FLOAT", "tensorShape": {"dim": [{"size": "1"}, {"size": "1000"}]}}}, "dtype": {"type": "DT_FLOAT"}}}, {"name": "StatefulPartitionedCall/generate_detections/PadV2_2/paddings", "op": "Const", "attr": {"dtype": {"type": "DT_INT32"}, "value": {"tensor": {"dtype": "DT_INT32", "tensorShape": {"dim": [{"size": "2"}, {"size": "2"}]}}}}}, {"name": "StatefulPartitionedCall/generate_detections/PadV2_2/constant_values", "op": "Const", "attr": {"value": {"tensor": {"dtype": "DT_FLOAT", "tensorShape": {}}}, "dtype": {"type": "DT_FLOAT"}}}, {"name": "StatefulPartitionedCall/generate_detections/Reshape_29/shape", "op": "Const", "attr": {"dtype": {"type": "DT_INT32"}, "value": {"tensor": {"dtype": "DT_INT32", "tensorShape": {"dim": [{"size": "2"}]}}}}}, {"name": "StatefulPartitionedCall/generate_detections/Greater_2/y", "op": "Const", "attr": {"dtype": {"type": "DT_FLOAT"}, "value": {"tensor": {"dtype": "DT_FLOAT", "tensorShape": {}}}}}, {"name": "StatefulPartitionedCall/generate_detections/Any_2/reduction_indices", "op": "Const", "attr": {"dtype": {"type": "DT_INT32"}, "value": {"tensor": {"dtype": "DT_INT32", "tensorShape": {"dim": [{"size": "1"}]}}}}}, {"name": "StatefulPartitionedCall/generate_detections/ExpandDims_2", "op": "Const", "attr": {"value": {"tensor": {"dtype": "DT_INT32", "tensorShape": {"dim": [{"size": "1"}, {"size": "1024"}]}}}, "dtype": {"type": "DT_INT32"}}}, {"name": "StatefulPartitionedCall/generate_detections/TopKV2_3/k", "op": "Const", "attr": {"dtype": {"type": "DT_INT32"}, "value": {"tensor": {"dtype": "DT_INT32", "tensorShape": {}}}}}, {"name": "StatefulPartitionedCall/generate_detections/sub_8", "op": "Const", "attr": {"value": {"tensor": {"dtype": "DT_INT32", "tensorShape": {}}}, "dtype": {"type": "DT_INT32"}}}, {"name": "StatefulPartitionedCall/generate_detections/Reshape_24/shape", "op": "Const", "attr": {"value": {"tensor": {"dtype": "DT_INT32", "tensorShape": {"dim": [{"size": "1"}]}}}, "dtype": {"type": "DT_INT32"}}}, {"name": "StatefulPartitionedCall/generate_detections/GatherV2_8/axis", "op": "Const", "attr": {"value": {"tensor": {"dtype": "DT_INT32", "tensorShape": {}}}, "dtype": {"type": "DT_INT32"}}}, {"name": "StatefulPartitionedCall/generate_detections/Reshape_30/shape", "op": "Const", "attr": {"dtype": {"type": "DT_INT32"}, "value": {"tensor": {"dtype": "DT_INT32", "tensorShape": {"dim": [{"size": "2"}]}}}}}, {"name": "StatefulPartitionedCall/generate_detections/Reshape_31", "op": "Const", "attr": {"value": {"tensor": {"dtype": "DT_INT32", "tensorShape": {"dim": [{"size": "1"}, {"size": "100"}]}}}, "dtype": {"type": "DT_INT32"}}}, {"name": "StatefulPartitionedCall/generate_detections/zeros_2", "op": "Const", "attr": {"dtype": {"type": "DT_INT32"}, "value": {"tensor": {"dtype": "DT_INT32", "tensorShape": {"dim": [{"size": "1"}]}}}}}, {"name": "StatefulPartitionedCall/generate_detections/strided_slice_11/stack", "op": "Const", "attr": {"value": {"tensor": {"dtype": "DT_INT32", "tensorShape": {"dim": [{"size": "3"}]}}}, "dtype": {"type": "DT_INT32"}}}, {"name": "StatefulPartitionedCall/generate_detections/strided_slice_11/stack_1", "op": "Const", "attr": {"dtype": {"type": "DT_INT32"}, "value": {"tensor": {"dtype": "DT_INT32", "tensorShape": {"dim": [{"size": "3"}]}}}}}, {"name": "StatefulPartitionedCall/generate_detections/strided_slice_11/stack_2", "op": "Const", "attr": {"dtype": {"type": "DT_INT32"}, "value": {"tensor": {"dtype": "DT_INT32", "tensorShape": {"dim": [{"size": "3"}]}}}}}, {"name": "StatefulPartitionedCall/generate_detections/filter_boxes_by_scores_2/Greater/y", "op": "Const", "attr": {"value": {"tensor": {"dtype": "DT_FLOAT", "tensorShape": {}}}, "dtype": {"type": "DT_FLOAT"}}}, {"name": "StatefulPartitionedCall/generate_detections/filter_boxes_by_scores_2/ExpandDims/dim", "op": "Const", "attr": {"dtype": {"type": "DT_INT32"}, "value": {"tensor": {"dtype": "DT_INT32", "tensorShape": {}}}}}, {"name": "StatefulPartitionedCall/generate_detections/strided_slice_10/stack", "op": "Const", "attr": {"dtype": {"type": "DT_INT32"}, "value": {"tensor": {"dtype": "DT_INT32", "tensorShape": {"dim": [{"size": "4"}]}}}}}, {"name": "StatefulPartitionedCall/generate_detections/strided_slice_10/stack_1", "op": "Const", "attr": {"dtype": {"type": "DT_INT32"}, "value": {"tensor": {"dtype": "DT_INT32", "tensorShape": {"dim": [{"size": "4"}]}}}}}, {"name": "StatefulPartitionedCall/generate_detections/strided_slice_10/stack_2", "op": "Const", "attr": {"value": {"tensor": {"dtype": "DT_INT32", "tensorShape": {"dim": [{"size": "4"}]}}}, "dtype": {"type": "DT_INT32"}}}, {"name": "StatefulPartitionedCall/generate_detections/strided_slice_12/stack", "op": "Const", "attr": {"value": {"tensor": {"dtype": "DT_INT32", "tensorShape": {"dim": [{"size": "3"}]}}}, "dtype": {"type": "DT_INT32"}}}, {"name": "StatefulPartitionedCall/generate_detections/strided_slice_12/stack_1", "op": "Const", "attr": {"dtype": {"type": "DT_INT32"}, "value": {"tensor": {"dtype": "DT_INT32", "tensorShape": {"dim": [{"size": "3"}]}}}}}, {"name": "StatefulPartitionedCall/generate_detections/strided_slice_12/stack_2", "op": "Const", "attr": {"dtype": {"type": "DT_INT32"}, "value": {"tensor": {"dtype": "DT_INT32", "tensorShape": {"dim": [{"size": "3"}]}}}}}, {"name": "StatefulPartitionedCall/generate_detections/GatherV2_6/axis", "op": "Const", "attr": {"dtype": {"type": "DT_INT32"}, "value": {"tensor": {"dtype": "DT_INT32", "tensorShape": {}}}}}, {"name": "StatefulPartitionedCall/generate_detections/Pad_2/paddings", "op": "Const", "attr": {"dtype": {"type": "DT_INT32"}, "value": {"tensor": {"dtype": "DT_INT32", "tensorShape": {"dim": [{"size": "3"}, {"size": "2"}]}}}}}, {"name": "StatefulPartitionedCall/generate_detections/Const_5", "op": "Const", "attr": {"value": {"tensor": {"dtype": "DT_FLOAT", "tensorShape": {}}}, "dtype": {"type": "DT_FLOAT"}}}, {"name": "StatefulPartitionedCall/generate_detections/Const_4", "op": "Const", "attr": {"value": {"tensor": {"dtype": "DT_INT32", "tensorShape": {}}}, "dtype": {"type": "DT_INT32"}}}, {"name": "StatefulPartitionedCall/generate_detections/add_4", "op": "Const", "attr": {"dtype": {"type": "DT_INT32"}, "value": {"tensor": {"dtype": "DT_INT32", "tensorShape": {}}}}}, {"name": "StatefulPartitionedCall/generate_detections/while_2/loop_counter", "op": "Const", "attr": {"dtype": {"type": "DT_INT32"}, "value": {"tensor": {"dtype": "DT_INT32", "tensorShape": {}}}}}, {"name": "StatefulPartitionedCall/generate_detections/Reshape_32/shape", "op": "Const", "attr": {"value": {"tensor": {"dtype": "DT_INT32", "tensorShape": {"dim": [{"size": "2"}]}}}, "dtype": {"type": "DT_INT32"}}}, {"name": "StatefulPartitionedCall/generate_detections/filter_boxes_by_scores_3/Neg", "op": "Const", "attr": {"dtype": {"type": "DT_FLOAT"}, "value": {"tensor": {"dtype": "DT_FLOAT", "tensorShape": {"dim": [{"size": "1"}, {"size": "1000"}]}}}}}, {"name": "StatefulPartitionedCall/generate_detections/PadV2_3/paddings", "op": "Const", "attr": {"value": {"tensor": {"dtype": "DT_INT32", "tensorShape": {"dim": [{"size": "2"}, {"size": "2"}]}}}, "dtype": {"type": "DT_INT32"}}}, {"name": "StatefulPartitionedCall/generate_detections/PadV2_3/constant_values", "op": "Const", "attr": {"value": {"tensor": {"dtype": "DT_FLOAT", "tensorShape": {}}}, "dtype": {"type": "DT_FLOAT"}}}, {"name": "StatefulPartitionedCall/generate_detections/Reshape_39/shape", "op": "Const", "attr": {"value": {"tensor": {"dtype": "DT_INT32", "tensorShape": {"dim": [{"size": "2"}]}}}, "dtype": {"type": "DT_INT32"}}}, {"name": "StatefulPartitionedCall/generate_detections/Greater_3/y", "op": "Const", "attr": {"value": {"tensor": {"dtype": "DT_FLOAT", "tensorShape": {}}}, "dtype": {"type": "DT_FLOAT"}}}, {"name": "StatefulPartitionedCall/generate_detections/Any_3/reduction_indices", "op": "Const", "attr": {"dtype": {"type": "DT_INT32"}, "value": {"tensor": {"dtype": "DT_INT32", "tensorShape": {"dim": [{"size": "1"}]}}}}}, {"name": "StatefulPartitionedCall/generate_detections/ExpandDims_3", "op": "Const", "attr": {"dtype": {"type": "DT_INT32"}, "value": {"tensor": {"dtype": "DT_INT32", "tensorShape": {"dim": [{"size": "1"}, {"size": "1024"}]}}}}}, {"name": "StatefulPartitionedCall/generate_detections/TopKV2_4/k", "op": "Const", "attr": {"dtype": {"type": "DT_INT32"}, "value": {"tensor": {"dtype": "DT_INT32", "tensorShape": {}}}}}, {"name": "StatefulPartitionedCall/generate_detections/sub_11", "op": "Const", "attr": {"value": {"tensor": {"dtype": "DT_INT32", "tensorShape": {}}}, "dtype": {"type": "DT_INT32"}}}, {"name": "StatefulPartitionedCall/generate_detections/Reshape_34/shape", "op": "Const", "attr": {"value": {"tensor": {"dtype": "DT_INT32", "tensorShape": {"dim": [{"size": "1"}]}}}, "dtype": {"type": "DT_INT32"}}}, {"name": "StatefulPartitionedCall/generate_detections/GatherV2_11/axis", "op": "Const", "attr": {"value": {"tensor": {"dtype": "DT_INT32", "tensorShape": {}}}, "dtype": {"type": "DT_INT32"}}}, {"name": "StatefulPartitionedCall/generate_detections/Reshape_40/shape", "op": "Const", "attr": {"dtype": {"type": "DT_INT32"}, "value": {"tensor": {"dtype": "DT_INT32", "tensorShape": {"dim": [{"size": "2"}]}}}}}, {"name": "StatefulPartitionedCall/generate_detections/Reshape_41", "op": "Const", "attr": {"dtype": {"type": "DT_INT32"}, "value": {"tensor": {"dtype": "DT_INT32", "tensorShape": {"dim": [{"size": "1"}, {"size": "100"}]}}}}}, {"name": "StatefulPartitionedCall/generate_detections/zeros_3", "op": "Const", "attr": {"dtype": {"type": "DT_INT32"}, "value": {"tensor": {"dtype": "DT_INT32", "tensorShape": {"dim": [{"size": "1"}]}}}}}, {"name": "StatefulPartitionedCall/generate_detections/strided_slice_16/stack", "op": "Const", "attr": {"dtype": {"type": "DT_INT32"}, "value": {"tensor": {"dtype": "DT_INT32", "tensorShape": {"dim": [{"size": "3"}]}}}}}, {"name": "StatefulPartitionedCall/generate_detections/strided_slice_16/stack_1", "op": "Const", "attr": {"value": {"tensor": {"dtype": "DT_INT32", "tensorShape": {"dim": [{"size": "3"}]}}}, "dtype": {"type": "DT_INT32"}}}, {"name": "StatefulPartitionedCall/generate_detections/strided_slice_16/stack_2", "op": "Const", "attr": {"dtype": {"type": "DT_INT32"}, "value": {"tensor": {"dtype": "DT_INT32", "tensorShape": {"dim": [{"size": "3"}]}}}}}, {"name": "StatefulPartitionedCall/generate_detections/filter_boxes_by_scores_3/Greater/y", "op": "Const", "attr": {"dtype": {"type": "DT_FLOAT"}, "value": {"tensor": {"dtype": "DT_FLOAT", "tensorShape": {}}}}}, {"name": "StatefulPartitionedCall/generate_detections/filter_boxes_by_scores_3/ExpandDims/dim", "op": "Const", "attr": {"value": {"tensor": {"dtype": "DT_INT32", "tensorShape": {}}}, "dtype": {"type": "DT_INT32"}}}, {"name": "StatefulPartitionedCall/generate_detections/strided_slice_15/stack", "op": "Const", "attr": {"value": {"tensor": {"dtype": "DT_INT32", "tensorShape": {"dim": [{"size": "4"}]}}}, "dtype": {"type": "DT_INT32"}}}, {"name": "StatefulPartitionedCall/generate_detections/strided_slice_15/stack_1", "op": "Const", "attr": {"value": {"tensor": {"dtype": "DT_INT32", "tensorShape": {"dim": [{"size": "4"}]}}}, "dtype": {"type": "DT_INT32"}}}, {"name": "StatefulPartitionedCall/generate_detections/strided_slice_15/stack_2", "op": "Const", "attr": {"dtype": {"type": "DT_INT32"}, "value": {"tensor": {"dtype": "DT_INT32", "tensorShape": {"dim": [{"size": "4"}]}}}}}, {"name": "StatefulPartitionedCall/generate_detections/strided_slice_17/stack", "op": "Const", "attr": {"dtype": {"type": "DT_INT32"}, "value": {"tensor": {"dtype": "DT_INT32", "tensorShape": {"dim": [{"size": "3"}]}}}}}, {"name": "StatefulPartitionedCall/generate_detections/strided_slice_17/stack_1", "op": "Const", "attr": {"value": {"tensor": {"dtype": "DT_INT32", "tensorShape": {"dim": [{"size": "3"}]}}}, "dtype": {"type": "DT_INT32"}}}, {"name": "StatefulPartitionedCall/generate_detections/strided_slice_17/stack_2", "op": "Const", "attr": {"dtype": {"type": "DT_INT32"}, "value": {"tensor": {"dtype": "DT_INT32", "tensorShape": {"dim": [{"size": "3"}]}}}}}, {"name": "StatefulPartitionedCall/generate_detections/GatherV2_9/axis", "op": "Const", "attr": {"value": {"tensor": {"dtype": "DT_INT32", "tensorShape": {}}}, "dtype": {"type": "DT_INT32"}}}, {"name": "StatefulPartitionedCall/generate_detections/Pad_3/paddings", "op": "Const", "attr": {"dtype": {"type": "DT_INT32"}, "value": {"tensor": {"dtype": "DT_INT32", "tensorShape": {"dim": [{"size": "3"}, {"size": "2"}]}}}}}, {"name": "StatefulPartitionedCall/generate_detections/Const_7", "op": "Const", "attr": {"value": {"tensor": {"dtype": "DT_FLOAT", "tensorShape": {}}}, "dtype": {"type": "DT_FLOAT"}}}, {"name": "StatefulPartitionedCall/generate_detections/Const_6", "op": "Const", "attr": {"dtype": {"type": "DT_INT32"}, "value": {"tensor": {"dtype": "DT_INT32", "tensorShape": {}}}}}, {"name": "StatefulPartitionedCall/generate_detections/add_6", "op": "Const", "attr": {"dtype": {"type": "DT_INT32"}, "value": {"tensor": {"dtype": "DT_INT32", "tensorShape": {}}}}}, {"name": "StatefulPartitionedCall/generate_detections/while_3/loop_counter", "op": "Const", "attr": {"value": {"tensor": {"dtype": "DT_INT32", "tensorShape": {}}}, "dtype": {"type": "DT_INT32"}}}, {"name": "StatefulPartitionedCall/generate_detections/Reshape_42/shape", "op": "Const", "attr": {"dtype": {"type": "DT_INT32"}, "value": {"tensor": {"dtype": "DT_INT32", "tensorShape": {"dim": [{"size": "2"}]}}}}}, {"name": "StatefulPartitionedCall/generate_detections/filter_boxes_by_scores_4/Neg", "op": "Const", "attr": {"value": {"tensor": {"dtype": "DT_FLOAT", "tensorShape": {"dim": [{"size": "1"}, {"size": "1000"}]}}}, "dtype": {"type": "DT_FLOAT"}}}, {"name": "StatefulPartitionedCall/generate_detections/PadV2_4/paddings", "op": "Const", "attr": {"dtype": {"type": "DT_INT32"}, "value": {"tensor": {"dtype": "DT_INT32", "tensorShape": {"dim": [{"size": "2"}, {"size": "2"}]}}}}}, {"name": "StatefulPartitionedCall/generate_detections/PadV2_4/constant_values", "op": "Const", "attr": {"dtype": {"type": "DT_FLOAT"}, "value": {"tensor": {"dtype": "DT_FLOAT", "tensorShape": {}}}}}, {"name": "StatefulPartitionedCall/generate_detections/Reshape_49/shape", "op": "Const", "attr": {"dtype": {"type": "DT_INT32"}, "value": {"tensor": {"dtype": "DT_INT32", "tensorShape": {"dim": [{"size": "2"}]}}}}}, {"name": "StatefulPartitionedCall/generate_detections/Greater_4/y", "op": "Const", "attr": {"dtype": {"type": "DT_FLOAT"}, "value": {"tensor": {"dtype": "DT_FLOAT", "tensorShape": {}}}}}, {"name": "StatefulPartitionedCall/generate_detections/Any_4/reduction_indices", "op": "Const", "attr": {"value": {"tensor": {"dtype": "DT_INT32", "tensorShape": {"dim": [{"size": "1"}]}}}, "dtype": {"type": "DT_INT32"}}}, {"name": "StatefulPartitionedCall/generate_detections/ExpandDims_4", "op": "Const", "attr": {"dtype": {"type": "DT_INT32"}, "value": {"tensor": {"dtype": "DT_INT32", "tensorShape": {"dim": [{"size": "1"}, {"size": "1024"}]}}}}}, {"name": "StatefulPartitionedCall/generate_detections/TopKV2_5/k", "op": "Const", "attr": {"dtype": {"type": "DT_INT32"}, "value": {"tensor": {"dtype": "DT_INT32", "tensorShape": {}}}}}, {"name": "StatefulPartitionedCall/generate_detections/sub_14", "op": "Const", "attr": {"value": {"tensor": {"dtype": "DT_INT32", "tensorShape": {}}}, "dtype": {"type": "DT_INT32"}}}, {"name": "StatefulPartitionedCall/generate_detections/Reshape_44/shape", "op": "Const", "attr": {"value": {"tensor": {"dtype": "DT_INT32", "tensorShape": {"dim": [{"size": "1"}]}}}, "dtype": {"type": "DT_INT32"}}}, {"name": "StatefulPartitionedCall/generate_detections/GatherV2_14/axis", "op": "Const", "attr": {"value": {"tensor": {"dtype": "DT_INT32", "tensorShape": {}}}, "dtype": {"type": "DT_INT32"}}}, {"name": "StatefulPartitionedCall/generate_detections/Reshape_50/shape", "op": "Const", "attr": {"value": {"tensor": {"dtype": "DT_INT32", "tensorShape": {"dim": [{"size": "2"}]}}}, "dtype": {"type": "DT_INT32"}}}, {"name": "StatefulPartitionedCall/generate_detections/Reshape_51", "op": "Const", "attr": {"value": {"tensor": {"dtype": "DT_INT32", "tensorShape": {"dim": [{"size": "1"}, {"size": "100"}]}}}, "dtype": {"type": "DT_INT32"}}}, {"name": "StatefulPartitionedCall/generate_detections/zeros_4", "op": "Const", "attr": {"value": {"tensor": {"dtype": "DT_INT32", "tensorShape": {"dim": [{"size": "1"}]}}}, "dtype": {"type": "DT_INT32"}}}, {"name": "StatefulPartitionedCall/generate_detections/strided_slice_21/stack", "op": "Const", "attr": {"value": {"tensor": {"dtype": "DT_INT32", "tensorShape": {"dim": [{"size": "3"}]}}}, "dtype": {"type": "DT_INT32"}}}, {"name": "StatefulPartitionedCall/generate_detections/strided_slice_21/stack_1", "op": "Const", "attr": {"value": {"tensor": {"dtype": "DT_INT32", "tensorShape": {"dim": [{"size": "3"}]}}}, "dtype": {"type": "DT_INT32"}}}, {"name": "StatefulPartitionedCall/generate_detections/strided_slice_21/stack_2", "op": "Const", "attr": {"value": {"tensor": {"dtype": "DT_INT32", "tensorShape": {"dim": [{"size": "3"}]}}}, "dtype": {"type": "DT_INT32"}}}, {"name": "StatefulPartitionedCall/generate_detections/filter_boxes_by_scores_4/Greater/y", "op": "Const", "attr": {"value": {"tensor": {"dtype": "DT_FLOAT", "tensorShape": {}}}, "dtype": {"type": "DT_FLOAT"}}}, {"name": "StatefulPartitionedCall/generate_detections/filter_boxes_by_scores_4/ExpandDims/dim", "op": "Const", "attr": {"dtype": {"type": "DT_INT32"}, "value": {"tensor": {"dtype": "DT_INT32", "tensorShape": {}}}}}, {"name": "StatefulPartitionedCall/generate_detections/strided_slice_20/stack", "op": "Const", "attr": {"dtype": {"type": "DT_INT32"}, "value": {"tensor": {"dtype": "DT_INT32", "tensorShape": {"dim": [{"size": "4"}]}}}}}, {"name": "StatefulPartitionedCall/generate_detections/strided_slice_20/stack_1", "op": "Const", "attr": {"dtype": {"type": "DT_INT32"}, "value": {"tensor": {"dtype": "DT_INT32", "tensorShape": {"dim": [{"size": "4"}]}}}}}, {"name": "StatefulPartitionedCall/generate_detections/strided_slice_20/stack_2", "op": "Const", "attr": {"value": {"tensor": {"dtype": "DT_INT32", "tensorShape": {"dim": [{"size": "4"}]}}}, "dtype": {"type": "DT_INT32"}}}, {"name": "StatefulPartitionedCall/generate_detections/strided_slice_22/stack", "op": "Const", "attr": {"dtype": {"type": "DT_INT32"}, "value": {"tensor": {"dtype": "DT_INT32", "tensorShape": {"dim": [{"size": "3"}]}}}}}, {"name": "StatefulPartitionedCall/generate_detections/strided_slice_22/stack_1", "op": "Const", "attr": {"value": {"tensor": {"dtype": "DT_INT32", "tensorShape": {"dim": [{"size": "3"}]}}}, "dtype": {"type": "DT_INT32"}}}, {"name": "StatefulPartitionedCall/generate_detections/strided_slice_22/stack_2", "op": "Const", "attr": {"dtype": {"type": "DT_INT32"}, "value": {"tensor": {"dtype": "DT_INT32", "tensorShape": {"dim": [{"size": "3"}]}}}}}, {"name": "StatefulPartitionedCall/generate_detections/GatherV2_12/axis", "op": "Const", "attr": {"dtype": {"type": "DT_INT32"}, "value": {"tensor": {"dtype": "DT_INT32", "tensorShape": {}}}}}, {"name": "StatefulPartitionedCall/generate_detections/Pad_4/paddings", "op": "Const", "attr": {"dtype": {"type": "DT_INT32"}, "value": {"tensor": {"dtype": "DT_INT32", "tensorShape": {"dim": [{"size": "3"}, {"size": "2"}]}}}}}, {"name": "StatefulPartitionedCall/generate_detections/Const_9", "op": "Const", "attr": {"value": {"tensor": {"dtype": "DT_FLOAT", "tensorShape": {}}}, "dtype": {"type": "DT_FLOAT"}}}, {"name": "StatefulPartitionedCall/generate_detections/Const_8", "op": "Const", "attr": {"dtype": {"type": "DT_INT32"}, "value": {"tensor": {"dtype": "DT_INT32", "tensorShape": {}}}}}, {"name": "StatefulPartitionedCall/generate_detections/add_8", "op": "Const", "attr": {"value": {"tensor": {"dtype": "DT_INT32", "tensorShape": {}}}, "dtype": {"type": "DT_INT32"}}}, {"name": "StatefulPartitionedCall/generate_detections/while_4/loop_counter", "op": "Const", "attr": {"dtype": {"type": "DT_INT32"}, "value": {"tensor": {"dtype": "DT_INT32", "tensorShape": {}}}}}, {"name": "StatefulPartitionedCall/generate_detections/Reshape_52/shape", "op": "Const", "attr": {"dtype": {"type": "DT_INT32"}, "value": {"tensor": {"dtype": "DT_INT32", "tensorShape": {"dim": [{"size": "2"}]}}}}}, {"name": "StatefulPartitionedCall/generate_detections/filter_boxes_by_scores_5/Neg", "op": "Const", "attr": {"value": {"tensor": {"dtype": "DT_FLOAT", "tensorShape": {"dim": [{"size": "1"}, {"size": "1000"}]}}}, "dtype": {"type": "DT_FLOAT"}}}, {"name": "StatefulPartitionedCall/generate_detections/PadV2_5/paddings", "op": "Const", "attr": {"value": {"tensor": {"dtype": "DT_INT32", "tensorShape": {"dim": [{"size": "2"}, {"size": "2"}]}}}, "dtype": {"type": "DT_INT32"}}}, {"name": "StatefulPartitionedCall/generate_detections/PadV2_5/constant_values", "op": "Const", "attr": {"dtype": {"type": "DT_FLOAT"}, "value": {"tensor": {"dtype": "DT_FLOAT", "tensorShape": {}}}}}, {"name": "StatefulPartitionedCall/generate_detections/Reshape_59/shape", "op": "Const", "attr": {"value": {"tensor": {"dtype": "DT_INT32", "tensorShape": {"dim": [{"size": "2"}]}}}, "dtype": {"type": "DT_INT32"}}}, {"name": "StatefulPartitionedCall/generate_detections/Greater_5/y", "op": "Const", "attr": {"value": {"tensor": {"dtype": "DT_FLOAT", "tensorShape": {}}}, "dtype": {"type": "DT_FLOAT"}}}, {"name": "StatefulPartitionedCall/generate_detections/Any_5/reduction_indices", "op": "Const", "attr": {"value": {"tensor": {"dtype": "DT_INT32", "tensorShape": {"dim": [{"size": "1"}]}}}, "dtype": {"type": "DT_INT32"}}}, {"name": "StatefulPartitionedCall/generate_detections/ExpandDims_5", "op": "Const", "attr": {"dtype": {"type": "DT_INT32"}, "value": {"tensor": {"dtype": "DT_INT32", "tensorShape": {"dim": [{"size": "1"}, {"size": "1024"}]}}}}}, {"name": "StatefulPartitionedCall/generate_detections/TopKV2_6/k", "op": "Const", "attr": {"value": {"tensor": {"dtype": "DT_INT32", "tensorShape": {}}}, "dtype": {"type": "DT_INT32"}}}, {"name": "StatefulPartitionedCall/generate_detections/sub_17", "op": "Const", "attr": {"dtype": {"type": "DT_INT32"}, "value": {"tensor": {"dtype": "DT_INT32", "tensorShape": {}}}}}, {"name": "StatefulPartitionedCall/generate_detections/Reshape_54/shape", "op": "Const", "attr": {"value": {"tensor": {"dtype": "DT_INT32", "tensorShape": {"dim": [{"size": "1"}]}}}, "dtype": {"type": "DT_INT32"}}}, {"name": "StatefulPartitionedCall/generate_detections/GatherV2_17/axis", "op": "Const", "attr": {"dtype": {"type": "DT_INT32"}, "value": {"tensor": {"dtype": "DT_INT32", "tensorShape": {}}}}}, {"name": "StatefulPartitionedCall/generate_detections/Reshape_60/shape", "op": "Const", "attr": {"dtype": {"type": "DT_INT32"}, "value": {"tensor": {"dtype": "DT_INT32", "tensorShape": {"dim": [{"size": "2"}]}}}}}, {"name": "StatefulPartitionedCall/generate_detections/Reshape_61", "op": "Const", "attr": {"value": {"tensor": {"dtype": "DT_INT32", "tensorShape": {"dim": [{"size": "1"}, {"size": "100"}]}}}, "dtype": {"type": "DT_INT32"}}}, {"name": "StatefulPartitionedCall/generate_detections/zeros_5", "op": "Const", "attr": {"dtype": {"type": "DT_INT32"}, "value": {"tensor": {"dtype": "DT_INT32", "tensorShape": {"dim": [{"size": "1"}]}}}}}, {"name": "StatefulPartitionedCall/generate_detections/strided_slice_26/stack", "op": "Const", "attr": {"dtype": {"type": "DT_INT32"}, "value": {"tensor": {"dtype": "DT_INT32", "tensorShape": {"dim": [{"size": "3"}]}}}}}, {"name": "StatefulPartitionedCall/generate_detections/strided_slice_26/stack_1", "op": "Const", "attr": {"value": {"tensor": {"dtype": "DT_INT32", "tensorShape": {"dim": [{"size": "3"}]}}}, "dtype": {"type": "DT_INT32"}}}, {"name": "StatefulPartitionedCall/generate_detections/strided_slice_26/stack_2", "op": "Const", "attr": {"value": {"tensor": {"dtype": "DT_INT32", "tensorShape": {"dim": [{"size": "3"}]}}}, "dtype": {"type": "DT_INT32"}}}, {"name": "StatefulPartitionedCall/generate_detections/filter_boxes_by_scores_5/Greater/y", "op": "Const", "attr": {"dtype": {"type": "DT_FLOAT"}, "value": {"tensor": {"dtype": "DT_FLOAT", "tensorShape": {}}}}}, {"name": "StatefulPartitionedCall/generate_detections/filter_boxes_by_scores_5/ExpandDims/dim", "op": "Const", "attr": {"dtype": {"type": "DT_INT32"}, "value": {"tensor": {"dtype": "DT_INT32", "tensorShape": {}}}}}, {"name": "StatefulPartitionedCall/generate_detections/strided_slice_25/stack", "op": "Const", "attr": {"dtype": {"type": "DT_INT32"}, "value": {"tensor": {"dtype": "DT_INT32", "tensorShape": {"dim": [{"size": "4"}]}}}}}, {"name": "StatefulPartitionedCall/generate_detections/strided_slice_25/stack_1", "op": "Const", "attr": {"dtype": {"type": "DT_INT32"}, "value": {"tensor": {"dtype": "DT_INT32", "tensorShape": {"dim": [{"size": "4"}]}}}}}, {"name": "StatefulPartitionedCall/generate_detections/strided_slice_25/stack_2", "op": "Const", "attr": {"value": {"tensor": {"dtype": "DT_INT32", "tensorShape": {"dim": [{"size": "4"}]}}}, "dtype": {"type": "DT_INT32"}}}, {"name": "StatefulPartitionedCall/generate_detections/strided_slice_27/stack", "op": "Const", "attr": {"value": {"tensor": {"dtype": "DT_INT32", "tensorShape": {"dim": [{"size": "3"}]}}}, "dtype": {"type": "DT_INT32"}}}, {"name": "StatefulPartitionedCall/generate_detections/strided_slice_27/stack_1", "op": "Const", "attr": {"dtype": {"type": "DT_INT32"}, "value": {"tensor": {"dtype": "DT_INT32", "tensorShape": {"dim": [{"size": "3"}]}}}}}, {"name": "StatefulPartitionedCall/generate_detections/strided_slice_27/stack_2", "op": "Const", "attr": {"dtype": {"type": "DT_INT32"}, "value": {"tensor": {"dtype": "DT_INT32", "tensorShape": {"dim": [{"size": "3"}]}}}}}, {"name": "StatefulPartitionedCall/generate_detections/GatherV2_15/axis", "op": "Const", "attr": {"dtype": {"type": "DT_INT32"}, "value": {"tensor": {"dtype": "DT_INT32", "tensorShape": {}}}}}, {"name": "StatefulPartitionedCall/generate_detections/Pad_5/paddings", "op": "Const", "attr": {"value": {"tensor": {"dtype": "DT_INT32", "tensorShape": {"dim": [{"size": "3"}, {"size": "2"}]}}}, "dtype": {"type": "DT_INT32"}}}, {"name": "StatefulPartitionedCall/generate_detections/Const_11", "op": "Const", "attr": {"value": {"tensor": {"dtype": "DT_FLOAT", "tensorShape": {}}}, "dtype": {"type": "DT_FLOAT"}}}, {"name": "StatefulPartitionedCall/generate_detections/Const_10", "op": "Const", "attr": {"value": {"tensor": {"dtype": "DT_INT32", "tensorShape": {}}}, "dtype": {"type": "DT_INT32"}}}, {"name": "StatefulPartitionedCall/generate_detections/add_10", "op": "Const", "attr": {"value": {"tensor": {"dtype": "DT_INT32", "tensorShape": {}}}, "dtype": {"type": "DT_INT32"}}}, {"name": "StatefulPartitionedCall/generate_detections/while_5/loop_counter", "op": "Const", "attr": {"dtype": {"type": "DT_INT32"}, "value": {"tensor": {"dtype": "DT_INT32", "tensorShape": {}}}}}, {"name": "StatefulPartitionedCall/generate_detections/Reshape_62/shape", "op": "Const", "attr": {"value": {"tensor": {"dtype": "DT_INT32", "tensorShape": {"dim": [{"size": "2"}]}}}, "dtype": {"type": "DT_INT32"}}}, {"name": "StatefulPartitionedCall/generate_detections/filter_boxes_by_scores_6/Neg", "op": "Const", "attr": {"value": {"tensor": {"dtype": "DT_FLOAT", "tensorShape": {"dim": [{"size": "1"}, {"size": "1000"}]}}}, "dtype": {"type": "DT_FLOAT"}}}, {"name": "StatefulPartitionedCall/generate_detections/PadV2_6/paddings", "op": "Const", "attr": {"value": {"tensor": {"dtype": "DT_INT32", "tensorShape": {"dim": [{"size": "2"}, {"size": "2"}]}}}, "dtype": {"type": "DT_INT32"}}}, {"name": "StatefulPartitionedCall/generate_detections/PadV2_6/constant_values", "op": "Const", "attr": {"dtype": {"type": "DT_FLOAT"}, "value": {"tensor": {"dtype": "DT_FLOAT", "tensorShape": {}}}}}, {"name": "StatefulPartitionedCall/generate_detections/Reshape_69/shape", "op": "Const", "attr": {"dtype": {"type": "DT_INT32"}, "value": {"tensor": {"dtype": "DT_INT32", "tensorShape": {"dim": [{"size": "2"}]}}}}}, {"name": "StatefulPartitionedCall/generate_detections/Greater_6/y", "op": "Const", "attr": {"value": {"tensor": {"dtype": "DT_FLOAT", "tensorShape": {}}}, "dtype": {"type": "DT_FLOAT"}}}, {"name": "StatefulPartitionedCall/generate_detections/Any_6/reduction_indices", "op": "Const", "attr": {"value": {"tensor": {"dtype": "DT_INT32", "tensorShape": {"dim": [{"size": "1"}]}}}, "dtype": {"type": "DT_INT32"}}}, {"name": "StatefulPartitionedCall/generate_detections/ExpandDims_6", "op": "Const", "attr": {"value": {"tensor": {"dtype": "DT_INT32", "tensorShape": {"dim": [{"size": "1"}, {"size": "1024"}]}}}, "dtype": {"type": "DT_INT32"}}}, {"name": "StatefulPartitionedCall/generate_detections/TopKV2_7/k", "op": "Const", "attr": {"dtype": {"type": "DT_INT32"}, "value": {"tensor": {"dtype": "DT_INT32", "tensorShape": {}}}}}, {"name": "StatefulPartitionedCall/generate_detections/sub_20", "op": "Const", "attr": {"dtype": {"type": "DT_INT32"}, "value": {"tensor": {"dtype": "DT_INT32", "tensorShape": {}}}}}, {"name": "StatefulPartitionedCall/generate_detections/Reshape_64/shape", "op": "Const", "attr": {"dtype": {"type": "DT_INT32"}, "value": {"tensor": {"dtype": "DT_INT32", "tensorShape": {"dim": [{"size": "1"}]}}}}}, {"name": "StatefulPartitionedCall/generate_detections/GatherV2_20/axis", "op": "Const", "attr": {"value": {"tensor": {"dtype": "DT_INT32", "tensorShape": {}}}, "dtype": {"type": "DT_INT32"}}}, {"name": "StatefulPartitionedCall/generate_detections/Reshape_70/shape", "op": "Const", "attr": {"value": {"tensor": {"dtype": "DT_INT32", "tensorShape": {"dim": [{"size": "2"}]}}}, "dtype": {"type": "DT_INT32"}}}, {"name": "StatefulPartitionedCall/generate_detections/Reshape_71", "op": "Const", "attr": {"value": {"tensor": {"dtype": "DT_INT32", "tensorShape": {"dim": [{"size": "1"}, {"size": "100"}]}}}, "dtype": {"type": "DT_INT32"}}}, {"name": "StatefulPartitionedCall/generate_detections/zeros_6", "op": "Const", "attr": {"dtype": {"type": "DT_INT32"}, "value": {"tensor": {"dtype": "DT_INT32", "tensorShape": {"dim": [{"size": "1"}]}}}}}, {"name": "StatefulPartitionedCall/generate_detections/strided_slice_31/stack", "op": "Const", "attr": {"dtype": {"type": "DT_INT32"}, "value": {"tensor": {"dtype": "DT_INT32", "tensorShape": {"dim": [{"size": "3"}]}}}}}, {"name": "StatefulPartitionedCall/generate_detections/strided_slice_31/stack_1", "op": "Const", "attr": {"value": {"tensor": {"dtype": "DT_INT32", "tensorShape": {"dim": [{"size": "3"}]}}}, "dtype": {"type": "DT_INT32"}}}, {"name": "StatefulPartitionedCall/generate_detections/strided_slice_31/stack_2", "op": "Const", "attr": {"dtype": {"type": "DT_INT32"}, "value": {"tensor": {"dtype": "DT_INT32", "tensorShape": {"dim": [{"size": "3"}]}}}}}, {"name": "StatefulPartitionedCall/generate_detections/filter_boxes_by_scores_6/Greater/y", "op": "Const", "attr": {"value": {"tensor": {"dtype": "DT_FLOAT", "tensorShape": {}}}, "dtype": {"type": "DT_FLOAT"}}}, {"name": "StatefulPartitionedCall/generate_detections/filter_boxes_by_scores_6/ExpandDims/dim", "op": "Const", "attr": {"value": {"tensor": {"dtype": "DT_INT32", "tensorShape": {}}}, "dtype": {"type": "DT_INT32"}}}, {"name": "StatefulPartitionedCall/generate_detections/strided_slice_30/stack", "op": "Const", "attr": {"dtype": {"type": "DT_INT32"}, "value": {"tensor": {"dtype": "DT_INT32", "tensorShape": {"dim": [{"size": "4"}]}}}}}, {"name": "StatefulPartitionedCall/generate_detections/strided_slice_30/stack_1", "op": "Const", "attr": {"dtype": {"type": "DT_INT32"}, "value": {"tensor": {"dtype": "DT_INT32", "tensorShape": {"dim": [{"size": "4"}]}}}}}, {"name": "StatefulPartitionedCall/generate_detections/strided_slice_30/stack_2", "op": "Const", "attr": {"value": {"tensor": {"dtype": "DT_INT32", "tensorShape": {"dim": [{"size": "4"}]}}}, "dtype": {"type": "DT_INT32"}}}, {"name": "StatefulPartitionedCall/generate_detections/strided_slice_32/stack", "op": "Const", "attr": {"dtype": {"type": "DT_INT32"}, "value": {"tensor": {"dtype": "DT_INT32", "tensorShape": {"dim": [{"size": "3"}]}}}}}, {"name": "StatefulPartitionedCall/generate_detections/strided_slice_32/stack_1", "op": "Const", "attr": {"value": {"tensor": {"dtype": "DT_INT32", "tensorShape": {"dim": [{"size": "3"}]}}}, "dtype": {"type": "DT_INT32"}}}, {"name": "StatefulPartitionedCall/generate_detections/strided_slice_32/stack_2", "op": "Const", "attr": {"dtype": {"type": "DT_INT32"}, "value": {"tensor": {"dtype": "DT_INT32", "tensorShape": {"dim": [{"size": "3"}]}}}}}, {"name": "StatefulPartitionedCall/generate_detections/GatherV2_18/axis", "op": "Const", "attr": {"value": {"tensor": {"dtype": "DT_INT32", "tensorShape": {}}}, "dtype": {"type": "DT_INT32"}}}, {"name": "StatefulPartitionedCall/generate_detections/Pad_6/paddings", "op": "Const", "attr": {"value": {"tensor": {"dtype": "DT_INT32", "tensorShape": {"dim": [{"size": "3"}, {"size": "2"}]}}}, "dtype": {"type": "DT_INT32"}}}, {"name": "StatefulPartitionedCall/generate_detections/Const_13", "op": "Const", "attr": {"value": {"tensor": {"dtype": "DT_FLOAT", "tensorShape": {}}}, "dtype": {"type": "DT_FLOAT"}}}, {"name": "StatefulPartitionedCall/generate_detections/Const_12", "op": "Const", "attr": {"dtype": {"type": "DT_INT32"}, "value": {"tensor": {"dtype": "DT_INT32", "tensorShape": {}}}}}, {"name": "StatefulPartitionedCall/generate_detections/add_12", "op": "Const", "attr": {"value": {"tensor": {"dtype": "DT_INT32", "tensorShape": {}}}, "dtype": {"type": "DT_INT32"}}}, {"name": "StatefulPartitionedCall/generate_detections/while_6/loop_counter", "op": "Const", "attr": {"dtype": {"type": "DT_INT32"}, "value": {"tensor": {"dtype": "DT_INT32", "tensorShape": {}}}}}, {"name": "StatefulPartitionedCall/generate_detections/Reshape_72/shape", "op": "Const", "attr": {"value": {"tensor": {"dtype": "DT_INT32", "tensorShape": {"dim": [{"size": "2"}]}}}, "dtype": {"type": "DT_INT32"}}}, {"name": "StatefulPartitionedCall/generate_detections/filter_boxes_by_scores_7/Neg", "op": "Const", "attr": {"dtype": {"type": "DT_FLOAT"}, "value": {"tensor": {"dtype": "DT_FLOAT", "tensorShape": {"dim": [{"size": "1"}, {"size": "1000"}]}}}}}, {"name": "StatefulPartitionedCall/generate_detections/PadV2_7/paddings", "op": "Const", "attr": {"value": {"tensor": {"dtype": "DT_INT32", "tensorShape": {"dim": [{"size": "2"}, {"size": "2"}]}}}, "dtype": {"type": "DT_INT32"}}}, {"name": "StatefulPartitionedCall/generate_detections/PadV2_7/constant_values", "op": "Const", "attr": {"value": {"tensor": {"dtype": "DT_FLOAT", "tensorShape": {}}}, "dtype": {"type": "DT_FLOAT"}}}, {"name": "StatefulPartitionedCall/generate_detections/Reshape_79/shape", "op": "Const", "attr": {"dtype": {"type": "DT_INT32"}, "value": {"tensor": {"dtype": "DT_INT32", "tensorShape": {"dim": [{"size": "2"}]}}}}}, {"name": "StatefulPartitionedCall/generate_detections/Greater_7/y", "op": "Const", "attr": {"dtype": {"type": "DT_FLOAT"}, "value": {"tensor": {"dtype": "DT_FLOAT", "tensorShape": {}}}}}, {"name": "StatefulPartitionedCall/generate_detections/Any_7/reduction_indices", "op": "Const", "attr": {"dtype": {"type": "DT_INT32"}, "value": {"tensor": {"dtype": "DT_INT32", "tensorShape": {"dim": [{"size": "1"}]}}}}}, {"name": "StatefulPartitionedCall/generate_detections/ExpandDims_7", "op": "Const", "attr": {"value": {"tensor": {"dtype": "DT_INT32", "tensorShape": {"dim": [{"size": "1"}, {"size": "1024"}]}}}, "dtype": {"type": "DT_INT32"}}}, {"name": "StatefulPartitionedCall/generate_detections/TopKV2_8/k", "op": "Const", "attr": {"dtype": {"type": "DT_INT32"}, "value": {"tensor": {"dtype": "DT_INT32", "tensorShape": {}}}}}, {"name": "StatefulPartitionedCall/generate_detections/sub_23", "op": "Const", "attr": {"dtype": {"type": "DT_INT32"}, "value": {"tensor": {"dtype": "DT_INT32", "tensorShape": {}}}}}, {"name": "StatefulPartitionedCall/generate_detections/Reshape_74/shape", "op": "Const", "attr": {"value": {"tensor": {"dtype": "DT_INT32", "tensorShape": {"dim": [{"size": "1"}]}}}, "dtype": {"type": "DT_INT32"}}}, {"name": "StatefulPartitionedCall/generate_detections/GatherV2_23/axis", "op": "Const", "attr": {"value": {"tensor": {"dtype": "DT_INT32", "tensorShape": {}}}, "dtype": {"type": "DT_INT32"}}}, {"name": "StatefulPartitionedCall/generate_detections/Reshape_80/shape", "op": "Const", "attr": {"value": {"tensor": {"dtype": "DT_INT32", "tensorShape": {"dim": [{"size": "2"}]}}}, "dtype": {"type": "DT_INT32"}}}, {"name": "StatefulPartitionedCall/generate_detections/Reshape_81", "op": "Const", "attr": {"dtype": {"type": "DT_INT32"}, "value": {"tensor": {"dtype": "DT_INT32", "tensorShape": {"dim": [{"size": "1"}, {"size": "100"}]}}}}}, {"name": "StatefulPartitionedCall/generate_detections/zeros_7", "op": "Const", "attr": {"dtype": {"type": "DT_INT32"}, "value": {"tensor": {"dtype": "DT_INT32", "tensorShape": {"dim": [{"size": "1"}]}}}}}, {"name": "StatefulPartitionedCall/generate_detections/strided_slice_36/stack", "op": "Const", "attr": {"value": {"tensor": {"dtype": "DT_INT32", "tensorShape": {"dim": [{"size": "3"}]}}}, "dtype": {"type": "DT_INT32"}}}, {"name": "StatefulPartitionedCall/generate_detections/strided_slice_36/stack_1", "op": "Const", "attr": {"value": {"tensor": {"dtype": "DT_INT32", "tensorShape": {"dim": [{"size": "3"}]}}}, "dtype": {"type": "DT_INT32"}}}, {"name": "StatefulPartitionedCall/generate_detections/strided_slice_36/stack_2", "op": "Const", "attr": {"dtype": {"type": "DT_INT32"}, "value": {"tensor": {"dtype": "DT_INT32", "tensorShape": {"dim": [{"size": "3"}]}}}}}, {"name": "StatefulPartitionedCall/generate_detections/filter_boxes_by_scores_7/Greater/y", "op": "Const", "attr": {"dtype": {"type": "DT_FLOAT"}, "value": {"tensor": {"dtype": "DT_FLOAT", "tensorShape": {}}}}}, {"name": "StatefulPartitionedCall/generate_detections/filter_boxes_by_scores_7/ExpandDims/dim", "op": "Const", "attr": {"dtype": {"type": "DT_INT32"}, "value": {"tensor": {"dtype": "DT_INT32", "tensorShape": {}}}}}, {"name": "StatefulPartitionedCall/generate_detections/strided_slice_35/stack", "op": "Const", "attr": {"value": {"tensor": {"dtype": "DT_INT32", "tensorShape": {"dim": [{"size": "4"}]}}}, "dtype": {"type": "DT_INT32"}}}, {"name": "StatefulPartitionedCall/generate_detections/strided_slice_35/stack_1", "op": "Const", "attr": {"value": {"tensor": {"dtype": "DT_INT32", "tensorShape": {"dim": [{"size": "4"}]}}}, "dtype": {"type": "DT_INT32"}}}, {"name": "StatefulPartitionedCall/generate_detections/strided_slice_35/stack_2", "op": "Const", "attr": {"value": {"tensor": {"dtype": "DT_INT32", "tensorShape": {"dim": [{"size": "4"}]}}}, "dtype": {"type": "DT_INT32"}}}, {"name": "StatefulPartitionedCall/generate_detections/strided_slice_37/stack", "op": "Const", "attr": {"value": {"tensor": {"dtype": "DT_INT32", "tensorShape": {"dim": [{"size": "3"}]}}}, "dtype": {"type": "DT_INT32"}}}, {"name": "StatefulPartitionedCall/generate_detections/strided_slice_37/stack_1", "op": "Const", "attr": {"dtype": {"type": "DT_INT32"}, "value": {"tensor": {"dtype": "DT_INT32", "tensorShape": {"dim": [{"size": "3"}]}}}}}, {"name": "StatefulPartitionedCall/generate_detections/strided_slice_37/stack_2", "op": "Const", "attr": {"value": {"tensor": {"dtype": "DT_INT32", "tensorShape": {"dim": [{"size": "3"}]}}}, "dtype": {"type": "DT_INT32"}}}, {"name": "StatefulPartitionedCall/generate_detections/GatherV2_21/axis", "op": "Const", "attr": {"value": {"tensor": {"dtype": "DT_INT32", "tensorShape": {}}}, "dtype": {"type": "DT_INT32"}}}, {"name": "StatefulPartitionedCall/generate_detections/Pad_7/paddings", "op": "Const", "attr": {"dtype": {"type": "DT_INT32"}, "value": {"tensor": {"dtype": "DT_INT32", "tensorShape": {"dim": [{"size": "3"}, {"size": "2"}]}}}}}, {"name": "StatefulPartitionedCall/generate_detections/Const_15", "op": "Const", "attr": {"value": {"tensor": {"dtype": "DT_FLOAT", "tensorShape": {}}}, "dtype": {"type": "DT_FLOAT"}}}, {"name": "StatefulPartitionedCall/generate_detections/Const_14", "op": "Const", "attr": {"dtype": {"type": "DT_INT32"}, "value": {"tensor": {"dtype": "DT_INT32", "tensorShape": {}}}}}, {"name": "StatefulPartitionedCall/generate_detections/add_14", "op": "Const", "attr": {"value": {"tensor": {"dtype": "DT_INT32", "tensorShape": {}}}, "dtype": {"type": "DT_INT32"}}}, {"name": "StatefulPartitionedCall/generate_detections/while_7/loop_counter", "op": "Const", "attr": {"value": {"tensor": {"dtype": "DT_INT32", "tensorShape": {}}}, "dtype": {"type": "DT_INT32"}}}, {"name": "StatefulPartitionedCall/generate_detections/Reshape_82/shape", "op": "Const", "attr": {"dtype": {"type": "DT_INT32"}, "value": {"tensor": {"dtype": "DT_INT32", "tensorShape": {"dim": [{"size": "2"}]}}}}}, {"name": "StatefulPartitionedCall/generate_detections/filter_boxes_by_scores_8/Neg", "op": "Const", "attr": {"dtype": {"type": "DT_FLOAT"}, "value": {"tensor": {"dtype": "DT_FLOAT", "tensorShape": {"dim": [{"size": "1"}, {"size": "1000"}]}}}}}, {"name": "StatefulPartitionedCall/generate_detections/PadV2_8/paddings", "op": "Const", "attr": {"dtype": {"type": "DT_INT32"}, "value": {"tensor": {"dtype": "DT_INT32", "tensorShape": {"dim": [{"size": "2"}, {"size": "2"}]}}}}}, {"name": "StatefulPartitionedCall/generate_detections/PadV2_8/constant_values", "op": "Const", "attr": {"dtype": {"type": "DT_FLOAT"}, "value": {"tensor": {"dtype": "DT_FLOAT", "tensorShape": {}}}}}, {"name": "StatefulPartitionedCall/generate_detections/Reshape_89/shape", "op": "Const", "attr": {"value": {"tensor": {"dtype": "DT_INT32", "tensorShape": {"dim": [{"size": "2"}]}}}, "dtype": {"type": "DT_INT32"}}}, {"name": "StatefulPartitionedCall/generate_detections/Greater_8/y", "op": "Const", "attr": {"value": {"tensor": {"dtype": "DT_FLOAT", "tensorShape": {}}}, "dtype": {"type": "DT_FLOAT"}}}, {"name": "StatefulPartitionedCall/generate_detections/Any_8/reduction_indices", "op": "Const", "attr": {"dtype": {"type": "DT_INT32"}, "value": {"tensor": {"dtype": "DT_INT32", "tensorShape": {"dim": [{"size": "1"}]}}}}}, {"name": "StatefulPartitionedCall/generate_detections/ExpandDims_8", "op": "Const", "attr": {"value": {"tensor": {"dtype": "DT_INT32", "tensorShape": {"dim": [{"size": "1"}, {"size": "1024"}]}}}, "dtype": {"type": "DT_INT32"}}}, {"name": "StatefulPartitionedCall/generate_detections/TopKV2_9/k", "op": "Const", "attr": {"value": {"tensor": {"dtype": "DT_INT32", "tensorShape": {}}}, "dtype": {"type": "DT_INT32"}}}, {"name": "StatefulPartitionedCall/generate_detections/sub_26", "op": "Const", "attr": {"dtype": {"type": "DT_INT32"}, "value": {"tensor": {"dtype": "DT_INT32", "tensorShape": {}}}}}, {"name": "StatefulPartitionedCall/generate_detections/Reshape_84/shape", "op": "Const", "attr": {"dtype": {"type": "DT_INT32"}, "value": {"tensor": {"dtype": "DT_INT32", "tensorShape": {"dim": [{"size": "1"}]}}}}}, {"name": "StatefulPartitionedCall/generate_detections/GatherV2_26/axis", "op": "Const", "attr": {"value": {"tensor": {"dtype": "DT_INT32", "tensorShape": {}}}, "dtype": {"type": "DT_INT32"}}}, {"name": "StatefulPartitionedCall/generate_detections/Reshape_90/shape", "op": "Const", "attr": {"value": {"tensor": {"dtype": "DT_INT32", "tensorShape": {"dim": [{"size": "2"}]}}}, "dtype": {"type": "DT_INT32"}}}, {"name": "StatefulPartitionedCall/generate_detections/Reshape_91", "op": "Const", "attr": {"value": {"tensor": {"dtype": "DT_INT32", "tensorShape": {"dim": [{"size": "1"}, {"size": "100"}]}}}, "dtype": {"type": "DT_INT32"}}}, {"name": "StatefulPartitionedCall/generate_detections/zeros_8", "op": "Const", "attr": {"dtype": {"type": "DT_INT32"}, "value": {"tensor": {"dtype": "DT_INT32", "tensorShape": {"dim": [{"size": "1"}]}}}}}, {"name": "StatefulPartitionedCall/generate_detections/strided_slice_41/stack", "op": "Const", "attr": {"dtype": {"type": "DT_INT32"}, "value": {"tensor": {"dtype": "DT_INT32", "tensorShape": {"dim": [{"size": "3"}]}}}}}, {"name": "StatefulPartitionedCall/generate_detections/strided_slice_41/stack_1", "op": "Const", "attr": {"dtype": {"type": "DT_INT32"}, "value": {"tensor": {"dtype": "DT_INT32", "tensorShape": {"dim": [{"size": "3"}]}}}}}, {"name": "StatefulPartitionedCall/generate_detections/strided_slice_41/stack_2", "op": "Const", "attr": {"dtype": {"type": "DT_INT32"}, "value": {"tensor": {"dtype": "DT_INT32", "tensorShape": {"dim": [{"size": "3"}]}}}}}, {"name": "StatefulPartitionedCall/generate_detections/filter_boxes_by_scores_8/Greater/y", "op": "Const", "attr": {"dtype": {"type": "DT_FLOAT"}, "value": {"tensor": {"dtype": "DT_FLOAT", "tensorShape": {}}}}}, {"name": "StatefulPartitionedCall/generate_detections/filter_boxes_by_scores_8/ExpandDims/dim", "op": "Const", "attr": {"dtype": {"type": "DT_INT32"}, "value": {"tensor": {"dtype": "DT_INT32", "tensorShape": {}}}}}, {"name": "StatefulPartitionedCall/generate_detections/strided_slice_40/stack", "op": "Const", "attr": {"dtype": {"type": "DT_INT32"}, "value": {"tensor": {"dtype": "DT_INT32", "tensorShape": {"dim": [{"size": "4"}]}}}}}, {"name": "StatefulPartitionedCall/generate_detections/strided_slice_40/stack_1", "op": "Const", "attr": {"dtype": {"type": "DT_INT32"}, "value": {"tensor": {"dtype": "DT_INT32", "tensorShape": {"dim": [{"size": "4"}]}}}}}, {"name": "StatefulPartitionedCall/generate_detections/strided_slice_40/stack_2", "op": "Const", "attr": {"dtype": {"type": "DT_INT32"}, "value": {"tensor": {"dtype": "DT_INT32", "tensorShape": {"dim": [{"size": "4"}]}}}}}, {"name": "StatefulPartitionedCall/generate_detections/strided_slice_42/stack", "op": "Const", "attr": {"dtype": {"type": "DT_INT32"}, "value": {"tensor": {"dtype": "DT_INT32", "tensorShape": {"dim": [{"size": "3"}]}}}}}, {"name": "StatefulPartitionedCall/generate_detections/strided_slice_42/stack_1", "op": "Const", "attr": {"dtype": {"type": "DT_INT32"}, "value": {"tensor": {"dtype": "DT_INT32", "tensorShape": {"dim": [{"size": "3"}]}}}}}, {"name": "StatefulPartitionedCall/generate_detections/strided_slice_42/stack_2", "op": "Const", "attr": {"dtype": {"type": "DT_INT32"}, "value": {"tensor": {"dtype": "DT_INT32", "tensorShape": {"dim": [{"size": "3"}]}}}}}, {"name": "StatefulPartitionedCall/generate_detections/GatherV2_24/axis", "op": "Const", "attr": {"dtype": {"type": "DT_INT32"}, "value": {"tensor": {"dtype": "DT_INT32", "tensorShape": {}}}}}, {"name": "StatefulPartitionedCall/generate_detections/Pad_8/paddings", "op": "Const", "attr": {"dtype": {"type": "DT_INT32"}, "value": {"tensor": {"dtype": "DT_INT32", "tensorShape": {"dim": [{"size": "3"}, {"size": "2"}]}}}}}, {"name": "StatefulPartitionedCall/generate_detections/Const_17", "op": "Const", "attr": {"value": {"tensor": {"dtype": "DT_FLOAT", "tensorShape": {}}}, "dtype": {"type": "DT_FLOAT"}}}, {"name": "StatefulPartitionedCall/generate_detections/Const_16", "op": "Const", "attr": {"value": {"tensor": {"dtype": "DT_INT32", "tensorShape": {}}}, "dtype": {"type": "DT_INT32"}}}, {"name": "StatefulPartitionedCall/generate_detections/add_16", "op": "Const", "attr": {"dtype": {"type": "DT_INT32"}, "value": {"tensor": {"dtype": "DT_INT32", "tensorShape": {}}}}}, {"name": "StatefulPartitionedCall/generate_detections/while_8/loop_counter", "op": "Const", "attr": {"dtype": {"type": "DT_INT32"}, "value": {"tensor": {"dtype": "DT_INT32", "tensorShape": {}}}}}, {"name": "StatefulPartitionedCall/generate_detections/Reshape_92/shape", "op": "Const", "attr": {"value": {"tensor": {"dtype": "DT_INT32", "tensorShape": {"dim": [{"size": "2"}]}}}, "dtype": {"type": "DT_INT32"}}}, {"name": "StatefulPartitionedCall/generate_detections/filter_boxes_by_scores_9/Neg", "op": "Const", "attr": {"value": {"tensor": {"dtype": "DT_FLOAT", "tensorShape": {"dim": [{"size": "1"}, {"size": "1000"}]}}}, "dtype": {"type": "DT_FLOAT"}}}, {"name": "StatefulPartitionedCall/generate_detections/PadV2_9/paddings", "op": "Const", "attr": {"value": {"tensor": {"dtype": "DT_INT32", "tensorShape": {"dim": [{"size": "2"}, {"size": "2"}]}}}, "dtype": {"type": "DT_INT32"}}}, {"name": "StatefulPartitionedCall/generate_detections/PadV2_9/constant_values", "op": "Const", "attr": {"value": {"tensor": {"dtype": "DT_FLOAT", "tensorShape": {}}}, "dtype": {"type": "DT_FLOAT"}}}, {"name": "StatefulPartitionedCall/generate_detections/Reshape_99/shape", "op": "Const", "attr": {"value": {"tensor": {"dtype": "DT_INT32", "tensorShape": {"dim": [{"size": "2"}]}}}, "dtype": {"type": "DT_INT32"}}}, {"name": "StatefulPartitionedCall/generate_detections/Greater_9/y", "op": "Const", "attr": {"dtype": {"type": "DT_FLOAT"}, "value": {"tensor": {"dtype": "DT_FLOAT", "tensorShape": {}}}}}, {"name": "StatefulPartitionedCall/generate_detections/Any_9/reduction_indices", "op": "Const", "attr": {"dtype": {"type": "DT_INT32"}, "value": {"tensor": {"dtype": "DT_INT32", "tensorShape": {"dim": [{"size": "1"}]}}}}}, {"name": "StatefulPartitionedCall/generate_detections/ExpandDims_9", "op": "Const", "attr": {"dtype": {"type": "DT_INT32"}, "value": {"tensor": {"dtype": "DT_INT32", "tensorShape": {"dim": [{"size": "1"}, {"size": "1024"}]}}}}}, {"name": "StatefulPartitionedCall/generate_detections/TopKV2_10/k", "op": "Const", "attr": {"dtype": {"type": "DT_INT32"}, "value": {"tensor": {"dtype": "DT_INT32", "tensorShape": {}}}}}, {"name": "StatefulPartitionedCall/generate_detections/sub_29", "op": "Const", "attr": {"dtype": {"type": "DT_INT32"}, "value": {"tensor": {"dtype": "DT_INT32", "tensorShape": {}}}}}, {"name": "StatefulPartitionedCall/generate_detections/Reshape_94/shape", "op": "Const", "attr": {"value": {"tensor": {"dtype": "DT_INT32", "tensorShape": {"dim": [{"size": "1"}]}}}, "dtype": {"type": "DT_INT32"}}}, {"name": "StatefulPartitionedCall/generate_detections/GatherV2_29/axis", "op": "Const", "attr": {"value": {"tensor": {"dtype": "DT_INT32", "tensorShape": {}}}, "dtype": {"type": "DT_INT32"}}}, {"name": "StatefulPartitionedCall/generate_detections/Reshape_100/shape", "op": "Const", "attr": {"dtype": {"type": "DT_INT32"}, "value": {"tensor": {"dtype": "DT_INT32", "tensorShape": {"dim": [{"size": "2"}]}}}}}, {"name": "StatefulPartitionedCall/generate_detections/Reshape_101", "op": "Const", "attr": {"dtype": {"type": "DT_INT32"}, "value": {"tensor": {"dtype": "DT_INT32", "tensorShape": {"dim": [{"size": "1"}, {"size": "100"}]}}}}}, {"name": "StatefulPartitionedCall/generate_detections/zeros_9", "op": "Const", "attr": {"dtype": {"type": "DT_INT32"}, "value": {"tensor": {"dtype": "DT_INT32", "tensorShape": {"dim": [{"size": "1"}]}}}}}, {"name": "StatefulPartitionedCall/generate_detections/Reshape_1/shape", "op": "Const", "attr": {"value": {"tensor": {"dtype": "DT_INT32", "tensorShape": {"dim": [{"size": "3"}]}}}, "dtype": {"type": "DT_INT32"}}}, {"name": "StatefulPartitionedCall/generate_detections/transpose_1/perm", "op": "Const", "attr": {"dtype": {"type": "DT_INT32"}, "value": {"tensor": {"dtype": "DT_INT32", "tensorShape": {"dim": [{"size": "3"}]}}}}}, {"name": "StatefulPartitionedCall/generate_detections/strided_slice_46/stack", "op": "Const", "attr": {"dtype": {"type": "DT_INT32"}, "value": {"tensor": {"dtype": "DT_INT32", "tensorShape": {"dim": [{"size": "3"}]}}}}}, {"name": "StatefulPartitionedCall/generate_detections/strided_slice_46/stack_1", "op": "Const", "attr": {"value": {"tensor": {"dtype": "DT_INT32", "tensorShape": {"dim": [{"size": "3"}]}}}, "dtype": {"type": "DT_INT32"}}}, {"name": "StatefulPartitionedCall/generate_detections/strided_slice_46/stack_2", "op": "Const", "attr": {"value": {"tensor": {"dtype": "DT_INT32", "tensorShape": {"dim": [{"size": "3"}]}}}, "dtype": {"type": "DT_INT32"}}}, {"name": "StatefulPartitionedCall/generate_detections/filter_boxes_by_scores_9/Greater/y", "op": "Const", "attr": {"value": {"tensor": {"dtype": "DT_FLOAT", "tensorShape": {}}}, "dtype": {"type": "DT_FLOAT"}}}, {"name": "StatefulPartitionedCall/generate_detections/filter_boxes_by_scores_9/ExpandDims/dim", "op": "Const", "attr": {"value": {"tensor": {"dtype": "DT_INT32", "tensorShape": {}}}, "dtype": {"type": "DT_INT32"}}}, {"name": "ConstantFolding/StatefulPartitionedCall/decode_boxes/truediv_recip", "op": "Const", "attr": {"value": {"tensor": {"dtype": "DT_FLOAT", "tensorShape": {}}}, "dtype": {"type": "DT_FLOAT"}}}, {"name": "StatefulPartitionedCall/decode_boxes/strided_slice/stack", "op": "Const", "attr": {"value": {"tensor": {"dtype": "DT_INT32", "tensorShape": {"dim": [{"size": "2"}]}}}, "dtype": {"type": "DT_INT32"}}}, {"name": "StatefulPartitionedCall/decode_boxes/strided_slice/stack_1", "op": "Const", "attr": {"value": {"tensor": {"dtype": "DT_INT32", "tensorShape": {"dim": [{"size": "2"}]}}}, "dtype": {…
ulPartitionedCall/generate_detections/while_8/body/_924/generate_detections/while_8/while/body/_2289/generate_detections/while_8/while/bbox_overlap/transpose_4/perm", "shape": [3], "dtype": "int32"}, {"name": "StatefulPartitionedCall/generate_detections/while_8/body/_924/generate_detections/while_8/while/body/_2289/generate_detections/while_8/while/bbox_overlap/add_1/y", "shape": [], "dtype": "float32"}, {"name": "StatefulPartitionedCall/generate_detections/while_8/body/_924/generate_detections/while_8/while/body/_2289/generate_detections/while_8/while/bbox_overlap/transpose_1/perm", "shape": [3], "dtype": "int32"}, {"name": "StatefulPartitionedCall/generate_detections/while_8/body/_924/generate_detections/while_8/while/body/_2289/generate_detections/while_8/while/bbox_overlap/transpose/perm", "shape": [3], "dtype": "int32"}, {"name": "StatefulPartitionedCall/generate_detections/while_8/body/_924/generate_detections/while_8/while/body/_2289/generate_detections/while_8/while/bbox_overlap/Maximum_2/y", "shape": [], "dtype": "float32"}, {"name": "StatefulPartitionedCall/generate_detections/while_8/body/_924/generate_detections/while_8/while/body/_2289/generate_detections/while_8/while/bbox_overlap/transpose_3/perm", "shape": [3], "dtype": "int32"}, {"name": "StatefulPartitionedCall/generate_detections/while_8/body/_924/generate_detections/while_8/while/body/_2289/generate_detections/while_8/while/bbox_overlap/split/split_dim", "shape": [], "dtype": "int32"}, {"name": "StatefulPartitionedCall/generate_detections/while_8/body/_924/generate_detections/while_8/while/body/_2289/generate_detections/while_8/while/Slice/begin/0", "shape": [], "dtype": "int32"}, {"name": "StatefulPartitionedCall/generate_detections/while_8/body/_924/generate_detections/while_8/while/body/_2289/generate_detections/while_8/while/mul/y", "shape": [], "dtype": "int32"}, {"name": "StatefulPartitionedCall/generate_detections/while_8/body/_924/generate_detections/while_8/while/body/_2289/generate_detections/while_8/while/Slice/begin/2", "shape": [], "dtype": "int32"}, {"name": "StatefulPartitionedCall/generate_detections/while_8/body/_924/generate_detections/while_8/while/body/_2289/generate_detections/while_8/while/Slice/size", "shape": [3], "dtype": "int32"}, {"name": "StatefulPartitionedCall/generate_detections/while_8/body/_924/generate_detections/while_8/while/body/_2289/generate_detections/while_8/while/bbox_overlap/split_1/split_dim", "shape": [], "dtype": "int32"}, {"name": "StatefulPartitionedCall/generate_detections/while_8/body/_924/generate_detections/while_8/while/body/_2289/generate_detections/while_8/while/bbox_overlap/transpose_2/perm", "shape": [3], "dtype": "int32"}, {"name": "StatefulPartitionedCall/generate_detections/while_8/body/_924/generate_detections/while_8/while/body/_2289/generate_detections/while_8/while/bbox_overlap/Maximum_3/y", "shape": [], "dtype": "float32"}, {"name": "StatefulPartitionedCall/generate_detections/while_8/body/_924/generate_detections/while_8/while/body/_2289/generate_detections/while_8/while/All/reduction_indices", "shape": [1], "dtype": "int32"}, {"name": "StatefulPartitionedCall/generate_detections/while_8/body/_924/generate_detections/while_8/while/body/_2289/generate_detections/while_8/while/ExpandDims/dim", "shape": [], "dtype": "int32"}, {"name": "StatefulPartitionedCall/generate_detections/while_8/body/_924/generate_detections/while_8/while/body/_2289/generate_detections/while_8/while/add/y", "shape": [], "dtype": "int32"}, {"name": "StatefulPartitionedCall/generate_detections/while_8/body/_924/generate_detections/while_8/while/body/_2289/generate_detections/while_8/while/add_1/y", "shape": [], "dtype": "int32"}, {"name": "StatefulPartitionedCall/multilevel_roi_generator/multilevel_propose_rois/level_2/while/body/_404/multilevel_roi_generator/multilevel_propose_rois/level_2/while/while/body/_1379/multilevel_roi_generator/multilevel_propose_rois/level_2/while/while/bbox_overlap/Max_1/reduction_indices", "shape": [], "dtype": "int32"}, {"name": "StatefulPartitionedCall/multilevel_roi_generator/multilevel_propose_rois/level_2/while/body/_404/multilevel_roi_generator/multilevel_propose_rois/level_2/while/while/body/_1379/multilevel_roi_generator/multilevel_propose_rois/level_2/while/while/bbox_overlap/Less_1/y", "shape": [], "dtype": "float32"}, {"name": "StatefulPartitionedCall/multilevel_roi_generator/multilevel_propose_rois/level_2/while/body/_404/multilevel_roi_generator/multilevel_propose_rois/level_2/while/while/body/_1379/multilevel_roi_generator/multilevel_propose_rois/level_2/while/while/bbox_overlap/Neg_1", "shape": [1, 512, 512], "dtype": "float32"}, {"name": "StatefulPartitionedCall/multilevel_roi_generator/multilevel_propose_rois/level_2/while/body/_404/multilevel_roi_generator/multilevel_propose_rois/level_2/while/while/body/_1379/multilevel_roi_generator/multilevel_propose_rois/level_2/while/while/bbox_overlap/zeros_like", "shape": [1, 512, 1], "dtype": "bool"}, {"name": "StatefulPartitionedCall/multilevel_roi_generator/multilevel_propose_rois/level_2/while/body/_404/multilevel_roi_generator/multilevel_propose_rois/level_2/while/while/body/_1379/multilevel_roi_generator/multilevel_propose_rois/level_2/while/while/bbox_overlap/Max/reduction_indices", "shape": [], "dtype": "int32"}, {"name": "StatefulPartitionedCall/multilevel_roi_generator/multilevel_propose_rois/level_2/while/body/_404/multilevel_roi_generator/multilevel_propose_rois/level_2/while/while/body/_1379/multilevel_roi_generator/multilevel_propose_rois/level_2/while/while/bbox_overlap/Less/y", "shape": [], "dtype": "float32"}, {"name": "StatefulPartitionedCall/multilevel_roi_generator/multilevel_propose_rois/level_2/while/body/_404/multilevel_roi_generator/multilevel_propose_rois/level_2/while/while/body/_1379/multilevel_roi_generator/multilevel_propose_rois/level_2/while/while/bbox_overlap/transpose_5/perm", "shape": [3], "dtype": "int32"}, {"name": "StatefulPartitionedCall/multilevel_roi_generator/multilevel_propose_rois/level_2/while/body/_404/multilevel_roi_generator/multilevel_propose_rois/level_2/while/while/body/_1379/multilevel_roi_generator/multilevel_propose_rois/level_2/while/while/bbox_overlap/Neg", "shape": [1, 512, 512], "dtype": "float32"}, {"name": "StatefulPartitionedCall/multilevel_roi_generator/multilevel_propose_rois/level_2/while/body/_404/multilevel_roi_generator/multilevel_propose_rois/level_2/while/while/body/_1379/multilevel_roi_generator/multilevel_propose_rois/level_2/while/while/bbox_overlap/transpose_4/perm", "shape": [3], "dtype": "int32"}, {"name": "StatefulPartitionedCall/multilevel_roi_generator/multilevel_propose_rois/level_2/while/body/_404/multilevel_roi_generator/multilevel_propose_rois/level_2/while/while/body/_1379/multilevel_roi_generator/multilevel_propose_rois/level_2/while/while/bbox_overlap/add_1/y", "shape": [], "dtype": "float32"}, {"name": "StatefulPartitionedCall/multilevel_roi_generator/multilevel_propose_rois/level_2/while/body/_404/multilevel_roi_generator/multilevel_propose_rois/level_2/while/while/body/_1379/multilevel_roi_generator/multilevel_propose_rois/level_2/while/while/bbox_overlap/transpose_1/perm", "shape": [3], "dtype": "int32"}, {"name": "StatefulPartitionedCall/multilevel_roi_generator/multilevel_propose_rois/level_2/while/body/_404/multilevel_roi_generator/multilevel_propose_rois/level_2/while/while/body/_1379/multilevel_roi_generator/multilevel_propose_rois/level_2/while/while/bbox_overlap/transpose/perm", "shape": [3], "dtype": "int32"}, {"name": "StatefulPartitionedCall/multilevel_roi_generator/multilevel_propose_rois/level_2/while/body/_404/multilevel_roi_generator/multilevel_propose_rois/level_2/while/while/body/_1379/multilevel_roi_generator/multilevel_propose_rois/level_2/while/while/bbox_overlap/Maximum_2/y", "shape": [], "dtype": "float32"}, {"name": "StatefulPartitionedCall/multilevel_roi_generator/multilevel_propose_rois/level_2/while/body/_404/multilevel_roi_generator/multilevel_propose_rois/level_2/while/while/body/_1379/multilevel_roi_generator/multilevel_propose_rois/level_2/while/while/bbox_overlap/transpose_3/perm", "shape": [3], "dtype": "int32"}, {"name": "StatefulPartitionedCall/multilevel_roi_generator/multilevel_propose_rois/level_2/while/body/_404/multilevel_roi_generator/multilevel_propose_rois/level_2/while/while/body/_1379/multilevel_roi_generator/multilevel_propose_rois/level_2/while/while/bbox_overlap/split/split_dim", "shape": [], "dtype": "int32"}, {"name": "StatefulPartitionedCall/multilevel_roi_generator/multilevel_propose_rois/level_2/while/body/_404/multilevel_roi_generator/multilevel_propose_rois/level_2/while/while/body/_1379/multilevel_roi_generator/multilevel_propose_rois/level_2/while/while/Slice/begin/0", "shape": [], "dtype": "int32"}, {"name": "StatefulPartitionedCall/multilevel_roi_generator/multilevel_propose_rois/level_2/while/body/_404/multilevel_roi_generator/multilevel_propose_rois/level_2/while/while/body/_1379/multilevel_roi_generator/multilevel_propose_rois/level_2/while/while/mul/y", "shape": [], "dtype": "int32"}, {"name": "StatefulPartitionedCall/multilevel_roi_generator/multilevel_propose_rois/level_2/while/body/_404/multilevel_roi_generator/multilevel_propose_rois/level_2/while/while/body/_1379/multilevel_roi_generator/multilevel_propose_rois/level_2/while/while/Slice/begin/2", "shape": [], "dtype": "int32"}, {"name": "StatefulPartitionedCall/multilevel_roi_generator/multilevel_propose_rois/level_2/while/body/_404/multilevel_roi_generator/multilevel_propose_rois/level_2/while/while/body/_1379/multilevel_roi_generator/multilevel_propose_rois/level_2/while/while/Slice/size", "shape": [3], "dtype": "int32"}, {"name": "StatefulPartitionedCall/multilevel_roi_generator/multilevel_propose_rois/level_2/while/body/_404/multilevel_roi_generator/multilevel_propose_rois/level_2/while/while/body/_1379/multilevel_roi_generator/multilevel_propose_rois/level_2/while/while/bbox_overlap/split_1/split_dim", "shape": [], "dtype": "int32"}, {"name": "StatefulPartitionedCall/multilevel_roi_generator/multilevel_propose_rois/level_2/while/body/_404/multilevel_roi_generator/multilevel_propose_rois/level_2/while/while/body/_1379/multilevel_roi_generator/multilevel_propose_rois/level_2/while/while/bbox_overlap/transpose_2/perm", "shape": [3], "dtype": "int32"}, {"name": "StatefulPartitionedCall/multilevel_roi_generator/multilevel_propose_rois/level_2/while/body/_404/multilevel_roi_generator/multilevel_propose_rois/level_2/while/while/body/_1379/multilevel_roi_generator/multilevel_propose_rois/level_2/while/while/bbox_overlap/Maximum_3/y", "shape": [], "dtype": "float32"}, {"name": "StatefulPartitionedCall/multilevel_roi_generator/multilevel_propose_rois/level_2/while/body/_404/multilevel_roi_generator/multilevel_propose_rois/level_2/while/while/body/_1379/multilevel_roi_generator/multilevel_propose_rois/level_2/while/while/All/reduction_indices", "shape": [1], "dtype": "int32"}, {"name": "StatefulPartitionedCall/multilevel_roi_generator/multilevel_propose_rois/level_2/while/body/_404/multilevel_roi_generator/multilevel_propose_rois/level_2/while/while/body/_1379/multilevel_roi_generator/multilevel_propose_rois/level_2/while/while/ExpandDims/dim", "shape": [], "dtype": "int32"}, {"name": "StatefulPartitionedCall/multilevel_roi_generator/multilevel_propose_rois/level_2/while/body/_404/multilevel_roi_generator/multilevel_propose_rois/level_2/while/while/body/_1379/multilevel_roi_generator/multilevel_propose_rois/level_2/while/while/add/y", "shape": [], "dtype": "int32"}, {"name": "StatefulPartitionedCall/multilevel_roi_generator/multilevel_propose_rois/level_2/while/body/_404/multilevel_roi_generator/multilevel_propose_rois/level_2/while/while/body/_1379/multilevel_roi_generator/multilevel_propose_rois/level_2/while/while/add_1/y", "shape": [], "dtype": "int32"}, {"name": "StatefulPartitionedCall/multilevel_roi_generator/multilevel_propose_rois/level_3/while/body/_444/multilevel_roi_generator/multilevel_propose_rois/level_3/while/while/body/_1449/multilevel_roi_generator/multilevel_propose_rois/level_3/while/while/bbox_overlap/Max_1/reduction_indices", "shape": [], "dtype": "int32"}, {"name": "StatefulPartitionedCall/multilevel_roi_generator/multilevel_propose_rois/level_3/while/body/_444/multilevel_roi_generator/multilevel_propose_rois/level_3/while/while/body/_1449/multilevel_roi_generator/multilevel_propose_rois/level_3/while/while/bbox_overlap/Less_1/y", "shape": [], "dtype": "float32"}, {"name": "StatefulPartitionedCall/multilevel_roi_generator/multilevel_propose_rois/level_3/while/body/_444/multilevel_roi_generator/multilevel_propose_rois/level_3/while/while/body/_1449/multilevel_roi_generator/multilevel_propose_rois/level_3/while/while/bbox_overlap/Neg_1", "shape": [1, 512, 512], "dtype": "float32"}, {"name": "StatefulPartitionedCall/multilevel_roi_generator/multilevel_propose_rois/level_3/while/body/_444/multilevel_roi_generator/multilevel_propose_rois/level_3/while/while/body/_1449/multilevel_roi_generator/multilevel_propose_rois/level_3/while/while/bbox_overlap/zeros_like", "shape": [1, 512, 1], "dtype": "bool"}, {"name": "StatefulPartitionedCall/multilevel_roi_generator/multilevel_propose_rois/level_3/while/body/_444/multilevel_roi_generator/multilevel_propose_rois/level_3/while/while/body/_1449/multilevel_roi_generator/multilevel_propose_rois/level_3/while/while/bbox_overlap/Max/reduction_indices", "shape": [], "dtype": "int32"}, {"name": "StatefulPartitionedCall/multilevel_roi_generator/multilevel_propose_rois/level_3/while/body/_444/multilevel_roi_generator/multilevel_propose_rois/level_3/while/while/body/_1449/multilevel_roi_generator/multilevel_propose_rois/level_3/while/while/bbox_overlap/Less/y", "shape": [], "dtype": "float32"}, {"name": "StatefulPartitionedCall/multilevel_roi_generator/multilevel_propose_rois/level_3/while/body/_444/multilevel_roi_generator/multilevel_propose_rois/level_3/while/while/body/_1449/multilevel_roi_generator/multilevel_propose_rois/level_3/while/while/bbox_overlap/transpose_5/perm", "shape": [3], "dtype": "int32"}, {"name": "StatefulPartitionedCall/multilevel_roi_generator/multilevel_propose_rois/level_3/while/body/_444/multilevel_roi_generator/multilevel_propose_rois/level_3/while/while/body/_1449/multilevel_roi_generator/multilevel_propose_rois/level_3/while/while/bbox_overlap/Neg", "shape": [1, 512, 512], "dtype": "float32"}, {"name": "StatefulPartitionedCall/multilevel_roi_generator/multilevel_propose_rois/level_3/while/body/_444/multilevel_roi_generator/multilevel_propose_rois/level_3/while/while/body/_1449/multilevel_roi_generator/multilevel_propose_rois/level_3/while/while/bbox_overlap/transpose_4/perm", "shape": [3], "dtype": "int32"}, {"name": "StatefulPartitionedCall/multilevel_roi_generator/multilevel_propose_rois/level_3/while/body/_444/multilevel_roi_generator/multilevel_propose_rois/level_3/while/while/body/_1449/multilevel_roi_generator/multilevel_propose_rois/level_3/while/while/bbox_overlap/add_1/y", "shape": [], "dtype": "float32"}, {"name": "StatefulPartitionedCall/multilevel_roi_generator/multilevel_propose_rois/level_3/while/body/_444/multilevel_roi_generator/multilevel_propose_rois/level_3/while/while/body/_1449/multilevel_roi_generator/multilevel_propose_rois/level_3/while/while/bbox_overlap/transpose_1/perm", "shape": [3], "dtype": "int32"}, {"name": "StatefulPartitionedCall/multilevel_roi_generator/multilevel_propose_rois/level_3/while/body/_444/multilevel_roi_generator/multilevel_propose_rois/level_3/while/while/body/_1449/multilevel_roi_generator/multilevel_propose_rois/level_3/while/while/bbox_overlap/transpose/perm", "shape": [3], "dtype": "int32"}, {"name": "StatefulPartitionedCall/multilevel_roi_generator/multilevel_propose_rois/level_3/while/body/_444/multilevel_roi_generator/multilevel_propose_rois/level_3/while/while/body/_1449/multilevel_roi_generator/multilevel_propose_rois/level_3/while/while/bbox_overlap/Maximum_2/y", "shape": [], "dtype": "float32"}, {"name": "StatefulPartitionedCall/multilevel_roi_generator/multilevel_propose_rois/level_3/while/body/_444/multilevel_roi_generator/multilevel_propose_rois/level_3/while/while/body/_1449/multilevel_roi_generator/multilevel_propose_rois/level_3/while/while/bbox_overlap/transpose_3/perm", "shape": [3], "dtype": "int32"}, {"name": "StatefulPartitionedCall/multilevel_roi_generator/multilevel_propose_rois/level_3/while/body/_444/multilevel_roi_generator/multilevel_propose_rois/level_3/while/while/body/_1449/multilevel_roi_generator/multilevel_propose_rois/level_3/while/while/bbox_overlap/split/split_dim", "shape": [], "dtype": "int32"}, {"name": "StatefulPartitionedCall/multilevel_roi_generator/multilevel_propose_rois/level_3/while/body/_444/multilevel_roi_generator/multilevel_propose_rois/level_3/while/while/body/_1449/multilevel_roi_generator/multilevel_propose_rois/level_3/while/while/Slice/begin/0", "shape": [], "dtype": "int32"}, {"name": "StatefulPartitionedCall/multilevel_roi_generator/multilevel_propose_rois/level_3/while/body/_444/multilevel_roi_generator/multilevel_propose_rois/level_3/while/while/body/_1449/multilevel_roi_generator/multilevel_propose_rois/level_3/while/while/mul/y", "shape": [], "dtype": "int32"}, {"name": "StatefulPartitionedCall/multilevel_roi_generator/multilevel_propose_rois/level_3/while/body/_444/multilevel_roi_generator/multilevel_propose_rois/level_3/while/while/body/_1449/multilevel_roi_generator/multilevel_propose_rois/level_3/while/while/Slice/begin/2", "shape": [], "dtype": "int32"}, {"name": "StatefulPartitionedCall/multilevel_roi_generator/multilevel_propose_rois/level_3/while/body/_444/multilevel_roi_generator/multilevel_propose_rois/level_3/while/while/body/_1449/multilevel_roi_generator/multilevel_propose_rois/level_3/while/while/Slice/size", "shape": [3], "dtype": "int32"}, {"name": "StatefulPartitionedCall/multilevel_roi_generator/multilevel_propose_rois/level_3/while/body/_444/multilevel_roi_generator/multilevel_propose_rois/level_3/while/while/body/_1449/multilevel_roi_generator/multilevel_propose_rois/level_3/while/while/bbox_overlap/split_1/split_dim", "shape": [], "dtype": "int32"}, {"name": "StatefulPartitionedCall/multilevel_roi_generator/multilevel_propose_rois/level_3/while/body/_444/multilevel_roi_generator/multilevel_propose_rois/level_3/while/while/body/_1449/multilevel_roi_generator/multilevel_propose_rois/level_3/while/while/bbox_overlap/transpose_2/perm", "shape": [3], "dtype": "int32"}, {"name": "StatefulPartitionedCall/multilevel_roi_generator/multilevel_propose_rois/level_3/while/body/_444/multilevel_roi_generator/multilevel_propose_rois/level_3/while/while/body/_1449/multilevel_roi_generator/multilevel_propose_rois/level_3/while/while/bbox_overlap/Maximum_3/y", "shape": [], "dtype": "float32"}, {"name": "StatefulPartitionedCall/multilevel_roi_generator/multilevel_propose_rois/level_3/while/body/_444/multilevel_roi_generator/multilevel_propose_rois/level_3/while/while/body/_1449/multilevel_roi_generator/multilevel_propose_rois/level_3/while/while/All/reduction_indices", "shape": [1], "dtype": "int32"}, {"name": "StatefulPartitionedCall/multilevel_roi_generator/multilevel_propose_rois/level_3/while/body/_444/multilevel_roi_generator/multilevel_propose_rois/level_3/while/while/body/_1449/multilevel_roi_generator/multilevel_propose_rois/level_3/while/while/ExpandDims/dim", "shape": [], "dtype": "int32"}, {"name": "StatefulPartitionedCall/multilevel_roi_generator/multilevel_propose_rois/level_3/while/body/_444/multilevel_roi_generator/multilevel_propose_rois/level_3/while/while/body/_1449/multilevel_roi_generator/multilevel_propose_rois/level_3/while/while/add/y", "shape": [], "dtype": "int32"}, {"name": "StatefulPartitionedCall/multilevel_roi_generator/multilevel_propose_rois/level_3/while/body/_444/multilevel_roi_generator/multilevel_propose_rois/level_3/while/while/body/_1449/multilevel_roi_generator/multilevel_propose_rois/level_3/while/while/add_1/y", "shape": [], "dtype": "int32"}, {"name": "StatefulPartitionedCall/multilevel_roi_generator/multilevel_propose_rois/level_4/while/body/_484/multilevel_roi_generator/multilevel_propose_rois/level_4/while/while/body/_1519/multilevel_roi_generator/multilevel_propose_rois/level_4/while/while/bbox_overlap/Max_1/reduction_indices", "shape": [], "dtype": "int32"}, {"name": "StatefulPartitionedCall/multilevel_roi_generator/multilevel_propose_rois/level_4/while/body/_484/multilevel_roi_generator/multilevel_propose_rois/level_4/while/while/body/_1519/multilevel_roi_generator/multilevel_propose_rois/level_4/while/while/bbox_overlap/Less_1/y", "shape": [], "dtype": "float32"}, {"name": "StatefulPartitionedCall/multilevel_roi_generator/multilevel_propose_rois/level_4/while/body/_484/multilevel_roi_generator/multilevel_propose_rois/level_4/while/while/body/_1519/multilevel_roi_generator/multilevel_propose_rois/level_4/while/while/bbox_overlap/Neg_1", "shape": [1, 512, 512], "dtype": "float32"}, {"name": "StatefulPartitionedCall/multilevel_roi_generator/multilevel_propose_rois/level_4/while/body/_484/multilevel_roi_generator/multilevel_propose_rois/level_4/while/while/body/_1519/multilevel_roi_generator/multilevel_propose_rois/level_4/while/while/bbox_overlap/zeros_like", "shape": [1, 512, 1], "dtype": "bool"}, {"name": "StatefulPartitionedCall/multilevel_roi_generator/multilevel_propose_rois/level_4/while/body/_484/multilevel_roi_generator/multilevel_propose_rois/level_4/while/while/body/_1519/multilevel_roi_generator/multilevel_propose_rois/level_4/while/while/bbox_overlap/Max/reduction_indices", "shape": [], "dtype": "int32"}, {"name": "StatefulPartitionedCall/multilevel_roi_generator/multilevel_propose_rois/level_4/while/body/_484/multilevel_roi_generator/multilevel_propose_rois/level_4/while/while/body/_1519/multilevel_roi_generator/multilevel_propose_rois/level_4/while/while/bbox_overlap/Less/y", "shape": [], "dtype": "float32"}, {"name": "StatefulPartitionedCall/multilevel_roi_generator/multilevel_propose_rois/level_4/while/body/_484/multilevel_roi_generator/multilevel_propose_rois/level_4/while/while/body/_1519/multilevel_roi_generator/multilevel_propose_rois/level_4/while/while/bbox_overlap/transpose_5/perm", "shape": [3], "dtype": "int32"}, {"name": "StatefulPartitionedCall/multilevel_roi_generator/multilevel_propose_rois/level_4/while/body/_484/multilevel_roi_generator/multilevel_propose_rois/level_4/while/while/body/_1519/multilevel_roi_generator/multilevel_propose_rois/level_4/while/while/bbox_overlap/Neg", "shape": [1, 512, 512], "dtype": "float32"}, {"name": "StatefulPartitionedCall/multilevel_roi_generator/multilevel_propose_rois/level_4/while/body/_484/multilevel_roi_generator/multilevel_propose_rois/level_4/while/while/body/_1519/multilevel_roi_generator/multilevel_propose_rois/level_4/while/while/bbox_overlap/transpose_4/perm", "shape": [3], "dtype": "int32"}, {"name": "StatefulPartitionedCall/multilevel_roi_generator/multilevel_propose_rois/level_4/while/body/_484/multilevel_roi_generator/multilevel_propose_rois/level_4/while/while/body/_1519/multilevel_roi_generator/multilevel_propose_rois/level_4/while/while/bbox_overlap/add_1/y", "shape": [], "dtype": "float32"}, {"name": "StatefulPartitionedCall/multilevel_roi_generator/multilevel_propose_rois/level_4/while/body/_484/multilevel_roi_generator/multilevel_propose_rois/level_4/while/while/body/_1519/multilevel_roi_generator/multilevel_propose_rois/level_4/while/while/bbox_overlap/transpose_1/perm", "shape": [3], "dtype": "int32"}, {"name": "StatefulPartitionedCall/multilevel_roi_generator/multilevel_propose_rois/level_4/while/body/_484/multilevel_roi_generator/multilevel_propose_rois/level_4/while/while/body/_1519/multilevel_roi_generator/multilevel_propose_rois/level_4/while/while/bbox_overlap/transpose/perm", "shape": [3], "dtype": "int32"}, {"name": "StatefulPartitionedCall/multilevel_roi_generator/multilevel_propose_rois/level_4/while/body/_484/multilevel_roi_generator/multilevel_propose_rois/level_4/while/while/body/_1519/multilevel_roi_generator/multilevel_propose_rois/level_4/while/while/bbox_overlap/Maximum_2/y", "shape": [], "dtype": "float32"}, {"name": "StatefulPartitionedCall/multilevel_roi_generator/multilevel_propose_rois/level_4/while/body/_484/multilevel_roi_generator/multilevel_propose_rois/level_4/while/while/body/_1519/multilevel_roi_generator/multilevel_propose_rois/level_4/while/while/bbox_overlap/transpose_3/perm", "shape": [3], "dtype": "int32"}, {"name": "StatefulPartitionedCall/multilevel_roi_generator/multilevel_propose_rois/level_4/while/body/_484/multilevel_roi_generator/multilevel_propose_rois/level_4/while/while/body/_1519/multilevel_roi_generator/multilevel_propose_rois/level_4/while/while/bbox_overlap/split/split_dim", "shape": [], "dtype": "int32"}, {"name": "StatefulPartitionedCall/multilevel_roi_generator/multilevel_propose_rois/level_4/while/body/_484/multilevel_roi_generator/multilevel_propose_rois/level_4/while/while/body/_1519/multilevel_roi_generator/multilevel_propose_rois/level_4/while/while/Slice/begin/0", "shape": [], "dtype": "int32"}, {"name": "StatefulPartitionedCall/multilevel_roi_generator/multilevel_propose_rois/level_4/while/body/_484/multilevel_roi_generator/multilevel_propose_rois/level_4/while/while/body/_1519/multilevel_roi_generator/multilevel_propose_rois/level_4/while/while/mul/y", "shape": [], "dtype": "int32"}, {"name": "StatefulPartitionedCall/multilevel_roi_generator/multilevel_propose_rois/level_4/while/body/_484/multilevel_roi_generator/multilevel_propose_rois/level_4/while/while/body/_1519/multilevel_roi_generator/multilevel_propose_rois/level_4/while/while/Slice/begin/2", "shape": [], "dtype": "int32"}, {"name": "StatefulPartitionedCall/multilevel_roi_generator/multilevel_propose_rois/level_4/while/body/_484/multilevel_roi_generator/multilevel_propose_rois/level_4/while/while/body/_1519/multilevel_roi_generator/multilevel_propose_rois/level_4/while/while/Slice/size", "shape": [3], "dtype": "int32"}, {"name": "StatefulPartitionedCall/multilevel_roi_generator/multilevel_propose_rois/level_4/while/body/_484/multilevel_roi_generator/multilevel_propose_rois/level_4/while/while/body/_1519/multilevel_roi_generator/multilevel_propose_rois/level_4/while/while/bbox_overlap/split_1/split_dim", "shape": [], "dtype": "int32"}, {"name": "StatefulPartitionedCall/multilevel_roi_generator/multilevel_propose_rois/level_4/while/body/_484/multilevel_roi_generator/multilevel_propose_rois/level_4/while/while/body/_1519/multilevel_roi_generator/multilevel_propose_rois/level_4/while/while/bbox_overlap/transpose_2/perm", "shape": [3], "dtype": "int32"}, {"name": "StatefulPartitionedCall/multilevel_roi_generator/multilevel_propose_rois/level_4/while/body/_484/multilevel_roi_generator/multilevel_propose_rois/level_4/while/while/body/_1519/multilevel_roi_generator/multilevel_propose_rois/level_4/while/while/bbox_overlap/Maximum_3/y", "shape": [], "dtype": "float32"}, {"name": "StatefulPartitionedCall/multilevel_roi_generator/multilevel_propose_rois/level_4/while/body/_484/multilevel_roi_generator/multilevel_propose_rois/level_4/while/while/body/_1519/multilevel_roi_generator/multilevel_propose_rois/level_4/while/while/All/reduction_indices", "shape": [1], "dtype": "int32"}, {"name": "StatefulPartitionedCall/multilevel_roi_generator/multilevel_propose_rois/level_4/while/body/_484/multilevel_roi_generator/multilevel_propose_rois/level_4/while/while/body/_1519/multilevel_roi_generator/multilevel_propose_rois/level_4/while/while/ExpandDims/dim", "shape": [], "dtype": "int32"}, {"name": "StatefulPartitionedCall/multilevel_roi_generator/multilevel_propose_rois/level_4/while/body/_484/multilevel_roi_generator/multilevel_propose_rois/level_4/while/while/body/_1519/multilevel_roi_generator/multilevel_propose_rois/level_4/while/while/add/y", "shape": [], "dtype": "int32"}, {"name": "StatefulPartitionedCall/multilevel_roi_generator/multilevel_propose_rois/level_4/while/body/_484/multilevel_roi_generator/multilevel_propose_rois/level_4/while/while/body/_1519/multilevel_roi_generator/multilevel_propose_rois/level_4/while/while/add_1/y", "shape": [], "dtype": "int32"}, {"name": "StatefulPartitionedCall/multilevel_roi_generator/multilevel_propose_rois/level_5/while/body/_524/multilevel_roi_generator/multilevel_propose_rois/level_5/while/while/body/_1589/multilevel_roi_generator/multilevel_propose_rois/level_5/while/while/bbox_overlap/Max_1/reduction_indices", "shape": [], "dtype": "int32"}, {"name": "StatefulPartitionedCall/multilevel_roi_generator/multilevel_propose_rois/level_5/while/body/_524/multilevel_roi_generator/multilevel_propose_rois/level_5/while/while/body/_1589/multilevel_roi_generator/multilevel_propose_rois/level_5/while/while/bbox_overlap/Less_1/y", "shape": [], "dtype": "float32"}, {"name": "StatefulPartitionedCall/multilevel_roi_generator/multilevel_propose_rois/level_5/while/body/_524/multilevel_roi_generator/multilevel_propose_rois/level_5/while/while/body/_1589/multilevel_roi_generator/multilevel_propose_rois/level_5/while/while/bbox_overlap/Neg_1", "shape": [1, 512, 512], "dtype": "float32"}, {"name": "StatefulPartitionedCall/multilevel_roi_generator/multilevel_propose_rois/level_5/while/body/_524/multilevel_roi_generator/multilevel_propose_rois/level_5/while/while/body/_1589/multilevel_roi_generator/multilevel_propose_rois/level_5/while/while/bbox_overlap/zeros_like", "shape": [1, 512, 1], "dtype": "bool"}, {"name": "StatefulPartitionedCall/multilevel_roi_generator/multilevel_propose_rois/level_5/while/body/_524/multilevel_roi_generator/multilevel_propose_rois/level_5/while/while/body/_1589/multilevel_roi_generator/multilevel_propose_rois/level_5/while/while/bbox_overlap/Max/reduction_indices", "shape": [], "dtype": "int32"}, {"name": "StatefulPartitionedCall/multilevel_roi_generator/multilevel_propose_rois/level_5/while/body/_524/multilevel_roi_generator/multilevel_propose_rois/level_5/while/while/body/_1589/multilevel_roi_generator/multilevel_propose_rois/level_5/while/while/bbox_overlap/Less/y", "shape": [], "dtype": "float32"}, {"name": "StatefulPartitionedCall/multilevel_roi_generator/multilevel_propose_rois/level_5/while/body/_524/multilevel_roi_generator/multilevel_propose_rois/level_5/while/while/body/_1589/multilevel_roi_generator/multilevel_propose_rois/level_5/while/while/bbox_overlap/transpose_5/perm", "shape": [3], "dtype": "int32"}, {"name": "StatefulPartitionedCall/multilevel_roi_generator/multilevel_propose_rois/level_5/while/body/_524/multilevel_roi_generator/multilevel_propose_rois/level_5/while/while/body/_1589/multilevel_roi_generator/multilevel_propose_rois/level_5/while/while/bbox_overlap/Neg", "shape": [1, 512, 512], "dtype": "float32"}, {"name": "StatefulPartitionedCall/multilevel_roi_generator/multilevel_propose_rois/level_5/while/body/_524/multilevel_roi_generator/multilevel_propose_rois/level_5/while/while/body/_1589/multilevel_roi_generator/multilevel_propose_rois/level_5/while/while/bbox_overlap/transpose_4/perm", "shape": [3], "dtype": "int32"}, {"name": "StatefulPartitionedCall/multilevel_roi_generator/multilevel_propose_rois/level_5/while/body/_524/multilevel_roi_generator/multilevel_propose_rois/level_5/while/while/body/_1589/multilevel_roi_generator/multilevel_propose_rois/level_5/while/while/bbox_overlap/add_1/y", "shape": [], "dtype": "float32"}, {"name": "StatefulPartitionedCall/multilevel_roi_generator/multilevel_propose_rois/level_5/while/body/_524/multilevel_roi_generator/multilevel_propose_rois/level_5/while/while/body/_1589/multilevel_roi_generator/multilevel_propose_rois/level_5/while/while/bbox_overlap/transpose_1/perm", "shape": [3], "dtype": "int32"}, {"name": "StatefulPartitionedCall/multilevel_roi_generator/multilevel_propose_rois/level_5/while/body/_524/multilevel_roi_generator/multilevel_propose_rois/level_5/while/while/body/_1589/multilevel_roi_generator/multilevel_propose_rois/level_5/while/while/bbox_overlap/transpose/perm", "shape": [3], "dtype": "int32"}, {"name": "StatefulPartitionedCall/multilevel_roi_generator/multilevel_propose_rois/level_5/while/body/_524/multilevel_roi_generator/multilevel_propose_rois/level_5/while/while/body/_1589/multilevel_roi_generator/multilevel_propose_rois/level_5/while/while/bbox_overlap/Maximum_2/y", "shape": [], "dtype": "float32"}, {"name": "StatefulPartitionedCall/multilevel_roi_generator/multilevel_propose_rois/level_5/while/body/_524/multilevel_roi_generator/multilevel_propose_rois/level_5/while/while/body/_1589/multilevel_roi_generator/multilevel_propose_rois/level_5/while/while/bbox_overlap/transpose_3/perm", "shape": [3], "dtype": "int32"}, {"name": "StatefulPartitionedCall/multilevel_roi_generator/multilevel_propose_rois/level_5/while/body/_524/multilevel_roi_generator/multilevel_propose_rois/level_5/while/while/body/_1589/multilevel_roi_generator/multilevel_propose_rois/level_5/while/while/bbox_overlap/split/split_dim", "shape": [], "dtype": "int32"}, {"name": "StatefulPartitionedCall/multilevel_roi_generator/multilevel_propose_rois/level_5/while/body/_524/multilevel_roi_generator/multilevel_propose_rois/level_5/while/while/body/_1589/multilevel_roi_generator/multilevel_propose_rois/level_5/while/while/Slice/begin/0", "shape": [], "dtype": "int32"}, {"name": "StatefulPartitionedCall/multilevel_roi_generator/multilevel_propose_rois/level_5/while/body/_524/multilevel_roi_generator/multilevel_propose_rois/level_5/while/while/body/_1589/multilevel_roi_generator/multilevel_propose_rois/level_5/while/while/mul/y", "shape": [], "dtype": "int32"}, {"name": "StatefulPartitionedCall/multilevel_roi_generator/multilevel_propose_rois/level_5/while/body/_524/multilevel_roi_generator/multilevel_propose_rois/level_5/while/while/body/_1589/multilevel_roi_generator/multilevel_propose_rois/level_5/while/while/Slice/begin/2", "shape": [], "dtype": "int32"}, {"name": "StatefulPartitionedCall/multilevel_roi_generator/multilevel_propose_rois/level_5/while/body/_524/multilevel_roi_generator/multilevel_propose_rois/level_5/while/while/body/_1589/multilevel_roi_generator/multilevel_propose_rois/level_5/while/while/Slice/size", "shape": [3], "dtype": "int32"}, {"name": "StatefulPartitionedCall/multilevel_roi_generator/multilevel_propose_rois/level_5/while/body/_524/multilevel_roi_generator/multilevel_propose_rois/level_5/while/while/body/_1589/multilevel_roi_generator/multilevel_propose_rois/level_5/while/while/bbox_overlap/split_1/split_dim", "shape": [], "dtype": "int32"}, {"name": "StatefulPartitionedCall/multilevel_roi_generator/multilevel_propose_rois/level_5/while/body/_524/multilevel_roi_generator/multilevel_propose_rois/level_5/while/while/body/_1589/multilevel_roi_generator/multilevel_propose_rois/level_5/while/while/bbox_overlap/transpose_2/perm", "shape": [3], "dtype": "int32"}, {"name": "StatefulPartitionedCall/multilevel_roi_generator/multilevel_propose_rois/level_5/while/body/_524/multilevel_roi_generator/multilevel_propose_rois/level_5/while/while/body/_1589/multilevel_roi_generator/multilevel_propose_rois/level_5/while/while/bbox_overlap/Maximum_3/y", "shape": [], "dtype": "float32"}, {"name": "StatefulPartitionedCall/multilevel_roi_generator/multilevel_propose_rois/level_5/while/body/_524/multilevel_roi_generator/multilevel_propose_rois/level_5/while/while/body/_1589/multilevel_roi_generator/multilevel_propose_rois/level_5/while/while/All/reduction_indices", "shape": [1], "dtype": "int32"}, {"name": "StatefulPartitionedCall/multilevel_roi_generator/multilevel_propose_rois/level_5/while/body/_524/multilevel_roi_generator/multilevel_propose_rois/level_5/while/while/body/_1589/multilevel_roi_generator/multilevel_propose_rois/level_5/while/while/ExpandDims/dim", "shape": [], "dtype": "int32"}, {"name": "StatefulPartitionedCall/multilevel_roi_generator/multilevel_propose_rois/level_5/while/body/_524/multilevel_roi_generator/multilevel_propose_rois/level_5/while/while/body/_1589/multilevel_roi_generator/multilevel_propose_rois/level_5/while/while/add/y", "shape": [], "dtype": "int32"}, {"name": "StatefulPartitionedCall/multilevel_roi_generator/multilevel_propose_rois/level_5/while/body/_524/multilevel_roi_generator/multilevel_propose_rois/level_5/while/while/body/_1589/multilevel_roi_generator/multilevel_propose_rois/level_5/while/while/add_1/y", "shape": [], "dtype": "int32"}, {"name": "StatefulPartitionedCall/multilevel_roi_generator/multilevel_propose_rois/level_6/while/body/_564/multilevel_roi_generator/multilevel_propose_rois/level_6/while/while/body/_1659/multilevel_roi_generator/multilevel_propose_rois/level_6/while/while/bbox_overlap/Max_1/reduction_indices", "shape": [], "dtype": "int32"}, {"name": "StatefulPartitionedCall/multilevel_roi_generator/multilevel_propose_rois/level_6/while/body/_564/multilevel_roi_generator/multilevel_propose_rois/level_6/while/while/body/_1659/multilevel_roi_generator/multilevel_propose_rois/level_6/while/while/bbox_overlap/Less_1/y", "shape": [], "dtype": "float32"}, {"name": "StatefulPartitionedCall/multilevel_roi_generator/multilevel_propose_rois/level_6/while/body/_564/multilevel_roi_generator/multilevel_propose_rois/level_6/while/while/body/_1659/multilevel_roi_generator/multilevel_propose_rois/level_6/while/while/bbox_overlap/Neg_1", "shape": [1, 512, 512], "dtype": "float32"}, {"name": "StatefulPartitionedCall/multilevel_roi_generator/multilevel_propose_rois/level_6/while/body/_564/multilevel_roi_generator/multilevel_propose_rois/level_6/while/while/body/_1659/multilevel_roi_generator/multilevel_propose_rois/level_6/while/while/bbox_overlap/zeros_like", "shape": [1, 512, 1], "dtype": "bool"}, {"name": "StatefulPartitionedCall/multilevel_roi_generator/multilevel_propose_rois/level_6/while/body/_564/multilevel_roi_generator/multilevel_propose_rois/level_6/while/while/body/_1659/multilevel_roi_generator/multilevel_propose_rois/level_6/while/while/bbox_overlap/Max/reduction_indices", "shape": [], "dtype": "int32"}, {"name": "StatefulPartitionedCall/multilevel_roi_generator/multilevel_propose_rois/level_6/while/body/_564/multilevel_roi_generator/multilevel_propose_rois/level_6/while/while/body/_1659/multilevel_roi_generator/multilevel_propose_rois/level_6/while/while/bbox_overlap/Less/y", "shape": [], "dtype": "float32"}, {"name": "StatefulPartitionedCall/multilevel_roi_generator/multilevel_propose_rois/level_6/while/body/_564/multilevel_roi_generator/multilevel_propose_rois/level_6/while/while/body/_1659/multilevel_roi_generator/multilevel_propose_rois/level_6/while/while/bbox_overlap/transpose_5/perm", "shape": [3], "dtype": "int32"}, {"name": "StatefulPartitionedCall/multilevel_roi_generator/multilevel_propose_rois/level_6/while/body/_564/multilevel_roi_generator/multilevel_propose_rois/level_6/while/while/body/_1659/multilevel_roi_generator/multilevel_propose_rois/level_6/while/while/bbox_overlap/Neg", "shape": [1, 512, 512], "dtype": "float32"}, {"name": "StatefulPartitionedCall/multilevel_roi_generator/multilevel_propose_rois/level_6/while/body/_564/multilevel_roi_generator/multilevel_propose_rois/level_6/while/while/body/_1659/multilevel_roi_generator/multilevel_propose_rois/level_6/while/while/bbox_overlap/transpose_4/perm", "shape": [3], "dtype": "int32"}, {"name": "StatefulPartitionedCall/multilevel_roi_generator/multilevel_propose_rois/level_6/while/body/_564/multilevel_roi_generator/multilevel_propose_rois/level_6/while/while/body/_1659/multilevel_roi_generator/multilevel_propose_rois/level_6/while/while/bbox_overlap/add_1/y", "shape": [], "dtype": "float32"}, {"name": "StatefulPartitionedCall/multilevel_roi_generator/multilevel_propose_rois/level_6/while/body/_564/multilevel_roi_generator/multilevel_propose_rois/level_6/while/while/body/_1659/multilevel_roi_generator/multilevel_propose_rois/level_6/while/while/bbox_overlap/transpose_1/perm", "shape": [3], "dtype": "int32"}, {"name": "StatefulPartitionedCall/multilevel_roi_generator/multilevel_propose_rois/level_6/while/body/_564/multilevel_roi_generator/multilevel_propose_rois/level_6/while/while/body/_1659/multilevel_roi_generator/multilevel_propose_rois/level_6/while/while/bbox_overlap/transpose/perm", "shape": [3], "dtype": "int32"}, {"name": "StatefulPartitionedCall/multilevel_roi_generator/multilevel_propose_rois/level_6/while/body/_564/multilevel_roi_generator/multilevel_propose_rois/level_6/while/while/body/_1659/multilevel_roi_generator/multilevel_propose_rois/level_6/while/while/bbox_overlap/Maximum_2/y", "shape": [], "dtype": "float32"}, {"name": "StatefulPartitionedCall/multilevel_roi_generator/multilevel_propose_rois/level_6/while/body/_564/multilevel_roi_generator/multilevel_propose_rois/level_6/while/while/body/_1659/multilevel_roi_generator/multilevel_propose_rois/level_6/while/while/bbox_overlap/transpose_3/perm", "shape": [3], "dtype": "int32"}, {"name": "StatefulPartitionedCall/multilevel_roi_generator/multilevel_propose_rois/level_6/while/body/_564/multilevel_roi_generator/multilevel_propose_rois/level_6/while/while/body/_1659/multilevel_roi_generator/multilevel_propose_rois/level_6/while/while/bbox_overlap/split/split_dim", "shape": [], "dtype": "int32"}, {"name": "StatefulPartitionedCall/multilevel_roi_generator/multilevel_propose_rois/level_6/while/body/_564/multilevel_roi_generator/multilevel_propose_rois/level_6/while/while/body/_1659/multilevel_roi_generator/multilevel_propose_rois/level_6/while/while/Slice/begin/0", "shape": [], "dtype": "int32"}, {"name": "StatefulPartitionedCall/multilevel_roi_generator/multilevel_propose_rois/level_6/while/body/_564/multilevel_roi_generator/multilevel_propose_rois/level_6/while/while/body/_1659/multilevel_roi_generator/multilevel_propose_rois/level_6/while/while/mul/y", "shape": [], "dtype": "int32"}, {"name": "StatefulPartitionedCall/multilevel_roi_generator/multilevel_propose_rois/level_6/while/body/_564/multilevel_roi_generator/multilevel_propose_rois/level_6/while/while/body/_1659/multilevel_roi_generator/multilevel_propose_rois/level_6/while/while/Slice/begin/2", "shape": [], "dtype": "int32"}, {"name": "StatefulPartitionedCall/multilevel_roi_generator/multilevel_propose_rois/level_6/while/body/_564/multilevel_roi_generator/multilevel_propose_rois/level_6/while/while/body/_1659/multilevel_roi_generator/multilevel_propose_rois/level_6/while/while/Slice/size", "shape": [3], "dtype": "int32"}, {"name": "StatefulPartitionedCall/multilevel_roi_generator/multilevel_propose_rois/level_6/while/body/_564/multilevel_roi_generator/multilevel_propose_rois/level_6/while/while/body/_1659/multilevel_roi_generator/multilevel_propose_rois/level_6/while/while/bbox_overlap/split_1/split_dim", "shape": [], "dtype": "int32"}, {"name": "StatefulPartitionedCall/multilevel_roi_generator/multilevel_propose_rois/level_6/while/body/_564/multilevel_roi_generator/multilevel_propose_rois/level_6/while/while/body/_1659/multilevel_roi_generator/multilevel_propose_rois/level_6/while/while/bbox_overlap/transpose_2/perm", "shape": [3], "dtype": "int32"}, {"name": "StatefulPartitionedCall/multilevel_roi_generator/multilevel_propose_rois/level_6/while/body/_564/multilevel_roi_generator/multilevel_propose_rois/level_6/while/while/body/_1659/multilevel_roi_generator/multilevel_propose_rois/level_6/while/while/bbox_overlap/Maximum_3/y", "shape": [], "dtype": "float32"}, {"name": "StatefulPartitionedCall/multilevel_roi_generator/multilevel_propose_rois/level_6/while/body/_564/multilevel_roi_generator/multilevel_propose_rois/level_6/while/while/body/_1659/multilevel_roi_generator/multilevel_propose_rois/level_6/while/while/All/reduction_indices", "shape": [1], "dtype": "int32"}, {"name": "StatefulPartitionedCall/multilevel_roi_generator/multilevel_propose_rois/level_6/while/body/_564/multilevel_roi_generator/multilevel_propose_rois/level_6/while/while/body/_1659/multilevel_roi_generator/multilevel_propose_rois/level_6/while/while/ExpandDims/dim", "shape": [], "dtype": "int32"}, {"name": "StatefulPartitionedCall/multilevel_roi_generator/multilevel_propose_rois/level_6/while/body/_564/multilevel_roi_generator/multilevel_propose_rois/level_6/while/while/body/_1659/multilevel_roi_generator/multilevel_propose_rois/level_6/while/while/add/y", "shape": [], "dtype": "int32"}, {"name": "StatefulPartitionedCall/multilevel_roi_generator/multilevel_propose_rois/level_6/while/body/_564/multilevel_roi_generator/multilevel_propose_rois/level_6/while/while/body/_1659/multilevel_roi_generator/multilevel_propose_rois/level_6/while/while/add_1/y", "shape": [], "dtype": "int32"}, {"name": "StatefulPartitionedCall/generate_detections/while_9/body/_964/generate_detections/while_9/while/body/_2359/generate_detections/while_9/while/bbox_overlap/Max_1/reduction_indices", "shape": [], "dtype": "int32"}, {"name": "StatefulPartitionedCall/generate_detections/while_9/body/_964/generate_detections/while_9/while/body/_2359/generate_detections/while_9/while/bbox_overlap/Less_1/y", "shape": [], "dtype": "float32"}, {"name": "StatefulPartitionedCall/generate_detections/while_9/body/_964/generate_detections/while_9/while/body/_2359/generate_detections/while_9/while/bbox_overlap/Neg_1", "shape": [1, 512, 512], "dtype": "float32"}, {"name": "StatefulPartitionedCall/generate_detections/while_9/body/_964/generate_detections/while_9/while/body/_2359/generate_detections/while_9/while/bbox_overlap/zeros_like", "shape": [1, 512, 1], "dtype": "bool"}, {"name": "StatefulPartitionedCall/generate_detections/while_9/body/_964/generate_detections/while_9/while/body/_2359/generate_detections/while_9/while/bbox_overlap/Max/reduction_indices", "shape": [], "dtype": "int32"}, {"name": "StatefulPartitionedCall/generate_detections/while_9/body/_964/generate_detections/while_9/while/body/_2359/generate_detections/while_9/while/bbox_overlap/Less/y", "shape": [], "dtype": "float32"}, {"name": "StatefulPartitionedCall/generate_detections/while_9/body/_964/generate_detections/while_9/while/body/_2359/generate_detections/while_9/while/bbox_overlap/transpose_5/perm", "shape": [3], "dtype": "int32"}, {"name": "StatefulPartitionedCall/generate_detections/while_9/body/_964/generate_detections/while_9/while/body/_2359/generate_detections/while_9/while/bbox_overlap/Neg", "shape": [1, 512, 512], "dtype": "float32"}, {"name": "StatefulPartitionedCall/generate_detections/while_9/body/_964/generate_detections/while_9/while/body/_2359/generate_detections/while_9/while/bbox_overlap/transpose_4/perm", "shape": [3], "dtype": "int32"}, {"name": "StatefulPartitionedCall/generate_detections/while_9/body/_964/generate_detections/while_9/while/body/_2359/generate_detections/while_9/while/bbox_overlap/add_1/y", "shape": [], "dtype": "float32"}, {"name": "StatefulPartitionedCall/generate_detections/while_9/body/_964/generate_detections/while_9/while/body/_2359/generate_detections/while_9/while/bbox_overlap/transpose_1/perm", "shape": [3], "dtype": "int32"}, {"name": "StatefulPartitionedCall/generate_detections/while_9/body/_964/generate_detections/while_9/while/body/_2359/generate_detections/while_9/while/bbox_overlap/transpose/perm", "shape": [3], "dtype": "int32"}, {"name": "StatefulPartitionedCall/generate_detections/while_9/body/_964/generate_detections/while_9/while/body/_2359/generate_detections/while_9/while/bbox_overlap/Maximum_2/y", "shape": [], "dtype": "float32"}, {"name": "StatefulPartitionedCall/generate_detections/while_9/body/_964/generate_detections/while_9/while/body/_2359/generate_detections/while_9/while/bbox_overlap/transpose_3/perm", "shape": [3], "dtype": "int32"}, {"name": "StatefulPartitionedCall/generate_detections/while_9/body/_964/generate_detections/while_9/while/body/_2359/generate_detections/while_9/while/bbox_overlap/split/split_dim", "shape": [], "dtype": "int32"}, {"name": "StatefulPartitionedCall/generate_detections/while_9/body/_964/generate_detections/while_9/while/body/_2359/generate_detections/while_9/while/Slice/begin/0", "shape": [], "dtype": "int32"}, {"name": "StatefulPartitionedCall/generate_detections/while_9/body/_964/generate_detections/while_9/while/body/_2359/generate_detections/while_9/while/mul/y", "shape": [], "dtype": "int32"}, {"name": "StatefulPartitionedCall/generate_detections/while_9/body/_964/generate_detections/while_9/while/body/_2359/generate_detections/while_9/while/Slice/begin/2", "shape": [], "dtype": "int32"}, {"name": "StatefulPartitionedCall/generate_detections/while_9/body/_964/generate_detections/while_9/while/body/_2359/generate_detections/while_9/while/Slice/size", "shape": [3], "dtype": "int32"}, {"name": "StatefulPartitionedCall/generate_detections/while_9/body/_964/generate_detections/while_9/while/body/_2359/generate_detections/while_9/while/bbox_overlap/split_1/split_dim", "shape": [], "dtype": "int32"}, {"name": "StatefulPartitionedCall/generate_detections/while_9/body/_964/generate_detections/while_9/while/body/_2359/generate_detections/while_9/while/bbox_overlap/transpose_2/perm", "shape": [3], "dtype": "int32"}, {"name": "StatefulPartitionedCall/generate_detections/while_9/body/_964/generate_detections/while_9/while/body/_2359/generate_detections/while_9/while/bbox_overlap/Maximum_3/y", "shape": [], "dtype": "float32"}, {"name": "StatefulPartitionedCall/generate_detections/while_9/body/_964/generate_detections/while_9/while/body/_2359/generate_detections/while_9/while/All/reduction_indices", "shape": [1], "dtype": "int32"}, {"name": "StatefulPartitionedCall/generate_detections/while_9/body/_964/generate_detections/while_9/while/body/_2359/generate_detections/while_9/while/ExpandDims/dim", "shape": [], "dtype": "int32"}, {"name": "StatefulPartitionedCall/generate_detections/while_9/body/_964/generate_detections/while_9/while/body/_2359/generate_detections/while_9/while/add/y", "shape": [], "dtype": "int32"}, {"name": "StatefulPartitionedCall/generate_detections/while_9/body/_964/generate_detections/while_9/while/body/_2359/generate_detections/while_9/while/add_1/y", "shape": [], "dtype": "int32"}]}]}